data/model/input_class.pt (torch, 101897 bytes, 13 tensors)

weight f4 [128, 16]
0	0x80008a07	-4.9515e-41
1	0x000088cf	4.9078e-41
2	0x00008904	4.9152e-41
3	0x00008932	4.9216e-41
4	0x8000892c	-4.9208e-41
5	0x000089c5	4.9422e-41
6	0x80008914	-4.9174e-41
7	0x800089eb	-4.9476e-41
8	0x80008983	-4.933e-41
9	0x8000895d	-4.9277e-41
10	0x800089e1	-4.9462e-41
11	0x000088c3	4.9061e-41
12	0x00009392	5.2938e-41
13	0x800089ee	-4.948e-41
14	0x8000af0b	-6.2794e-41
15	0x000089f1	4.9484e-41
16	0x000088e9	4.9114e-41
17	0x0000890e	4.9166e-41
18	0x0000892b	4.9207e-41
19	0x00008956	4.9267e-41
20	0x000088c0	4.9057e-41
21	0x800088cc	-4.9073e-41
22	0x000088cb	4.9072e-41
23	0x000088c7	4.9066e-41
24	0x000089ea	4.9474e-41
25	0x00008942	4.9239e-41
26	0x0000891c	4.9186e-41
27	0x000089c5	4.9422e-41
28	0x0000896c	4.9298e-41
29	0x00008956	4.9267e-41
30	0x800089c9	-4.9428e-41
31	0x800089de	-4.9457e-41
32	0x80009b09	-5.5616e-41
33	0x80008925	-4.9198e-41
34	0x0000897d	4.9322e-41
35	0x000089fd	4.9501e-41
36	0x8000894d	-4.9254e-41
37	0x800088c1	-4.9058e-41
38	0x00008961	4.9282e-41
39	0x000089a8	4.9382e-41
40	0x0000897a	4.9317e-41
41	0x0000890b	4.9162e-41
42	0x00008a1c	4.9544e-41
43	0x000089ef	4.9481e-41
44	0x80008987	-4.9336e-41
45	0x00008950	4.9258e-41
46	0x80008928	-4.9202e-41
47	0x800089a0	-4.937e-41
48	0x000089cb	4.9431e-41
49	0x800088fe	-4.9144e-41
50	0x800088d4	-4.9085e-41
51	0x800089b6	-4.9401e-41
52	0x0000899e	4.9368e-41
53	0x00008933	4.9218e-41
54	0x80008a05	-4.9512e-41
55	0x000089a9	4.9383e-41
56	0x00008962	4.9284e-41
57	0x000089db	4.9453e-41
58	0x800089c5	-4.9422e-41
59	0x800089f4	-4.9488e-41
60	0x80008936	-4.9222e-41
61	0x0000899b	4.9364e-41
62	0x000089db	4.9453e-41
63	0x800088f2	-4.9127e-41
64	0x800088e3	-4.9106e-41
65	0x000089fe	4.9502e-41
66	0x80008964	-4.9286e-41
67	0x00008a0a	4.9519e-41
68	0x000089dc	4.9455e-41
69	0x000089ec	4.9477e-41
70	0x800089ec	-4.9477e-41
71	0x00008912	4.9172e-41
72	0x800089f5	-4.949e-41
73	0x800088fb	-4.914e-41
74	0x80008918	-4.918e-41
75	0x000089ac	4.9387e-41
76	0x000089ec	4.9477e-41
77	0x80008950	-4.9258e-41
78	0x000088cb	4.9072e-41
79	0x000089fd	4.9501e-41
80	0x000089e4	4.9466e-41
81	0x800088fc	-4.9141e-41
82	0x00008922	4.9194e-41
83	0x00008956	4.9267e-41
84	0x800089d4	-4.9443e-41
85	0x000088c5	4.9064e-41
86	0x800088e5	-4.9109e-41
87	0x800089aa	-4.9385e-41
88	0x800089aa	-4.9385e-41
89	0x8000897e	-4.9323e-41
90	0x8000892a	-4.9205e-41
91	0x000089b3	4.9397e-41
92	0x0000897c	4.932e-41
93	0x0000afad	6.302e-41
94	0x8000896d	-4.9299e-41
95	0x800098da	-5.4833e-41
96	0x00008911	4.917e-41
97	0x00008962	4.9284e-41
98	0x00008919	4.9181e-41
99	0x000088fe	4.9144e-41
100	0x000088f3	4.9128e-41
101	0x80008946	-4.9244e-41
102	0x00008998	4.936e-41
103	0x00008946	4.9244e-41
104	0x000088f4	4.913e-41
105	0x800089f1	-4.9484e-41
106	0x800088ea	-4.9116e-41
107	0x000088c0	4.9057e-41
108	0x800088d8	-4.909e-41
109	0x00008920	4.9191e-41
110	0x000089b6	4.9401e-41
111	0x80009a73	-5.5406e-41
112	0x80008981	-4.9327e-41
113	0x000088de	4.9099e-41
114	0x000089fe	4.9502e-41
115	0x800089a1	-4.9372e-41
116	0x000089d9	4.945e-41
117	0x0000ae9d	6.264e-41
118	0x000088f2	4.9127e-41
119	0x00008966	4.9289e-41
120	0x0000895a	4.9272e-41
121	0x800088f7	-4.9134e-41
122	0x000088dc	4.9096e-41
123	0x00008948	4.9247e-41
124	0x80008971	-4.9305e-41
125	0x00008fbe	5.1565e-41
126	0x00008963	4.9285e-41
127	0x00008963	4.9285e-41
128	0x80008943	-4.924e-41
129	0x800088d3	-4.9083e-41
130	0x00008948	4.9247e-41
131	0x8000895d	-4.9277e-41
132	0x80008941	-4.9237e-41
133	0x000088e5	4.9109e-41
134	0x800088ea	-4.9116e-41
135	0x000089ba	4.9407e-41
136	0x000089f1	4.9484e-41
137	0x800088f5	-4.9131e-41
138	0x000089c5	4.9422e-41
139	0x80008977	-4.9313e-41
140	0x80008990	-4.9348e-41
141	0x00008957	4.9268e-41
142	0x800088c5	-4.9064e-41
143	0x00008959	4.9271e-41
144	0x000088d7	4.9089e-41
145	0x0000894d	4.9254e-41
146	0x00008a01	4.9506e-41
147	0x00008964	4.9286e-41
148	0x800088bc	-4.9051e-41
149	0x8000897b	-4.9319e-41
150	0x800089ae	-4.939e-41
151	0x80008931	-4.9215e-41
152	0x800088bc	-4.9051e-41
153	0x0000893b	4.9229e-41
154	0x0000890b	4.9162e-41
155	0x80008987	-4.9336e-41
156	0x800088d2	-4.9082e-41
157	0x80008942	-4.9239e-41
158	0x000088d0	4.9079e-41
159	0x800089d6	-4.9446e-41
160	0x800089a3	-4.9375e-41
161	0x8000891d	-4.9187e-41
162	0x000088e1	4.9103e-41
163	0x000089f7	4.9492e-41
164	0x0000896c	4.9298e-41
165	0x800088fc	-4.9141e-41
166	0x000089d9	4.945e-41
167	0x0000895c	4.9275e-41
168	0x80008954	-4.9264e-41
169	0x800088e9	-4.9114e-41
170	0x80008996	-4.9357e-41
171	0x80008945	-4.9243e-41
172	0x800089f0	-4.9483e-41
173	0x800089a6	-4.9379e-41
174	0x800088ff	-4.9145e-41
175	0x0000894f	4.9257e-41
176	0x000089ef	4.9481e-41
177	0x00008a0e	4.9525e-41
178	0x800089e4	-4.9466e-41
179	0x0000890d	4.9165e-41
180	0x80008997	-4.9358e-41
181	0x800088bb	-4.905e-41
182	0x800089ff	-4.9504e-41
183	0x800088cc	-4.9073e-41
184	0x00008998	4.936e-41
185	0x800089a4	-4.9376e-41
186	0x000089ab	4.9386e-41
187	0x00008b73	5.0025e-41
188	0x000089ae	4.939e-41
189	0x000089b2	4.9396e-41
190	0x00008957	4.9268e-41
191	0x800089b1	-4.9394e-41
192	0x000088be	4.9054e-41
193	0x000088bb	4.905e-41
194	0x000088cf	4.9078e-41
195	0x80008972	-4.9306e-41
196	0x000089e7	4.947e-41
197	0x80008998	-4.936e-41
198	0x80008957	-4.9268e-41
199	0x00008946	4.9244e-41
200	0x800089c1	-4.9417e-41
201	0x00008986	4.9334e-41
202	0x000089de	4.9457e-41
203	0x0000895e	4.9278e-41
204	0x000089f5	4.949e-41
205	0x00008943	4.924e-41
206	0x8000894e	-4.9256e-41
207	0x0000892b	4.9207e-41
208	0x800089e7	-4.947e-41
209	0x8000895f	-4.928e-41
210	0x800089b9	-4.9406e-41
211	0x000089de	4.9457e-41
212	0x800088e9	-4.9114e-41
213	0x800089d8	-4.9449e-41
214	0x8000895b	-4.9274e-41
215	0x800089b0	-4.9393e-41
216	0x800089de	-4.9457e-41
217	0x0000895d	4.9277e-41
218	0x80008926	-4.92e-41
219	0x800088d9	-4.9092e-41
220	0x00008933	4.9218e-41
221	0x800088e3	-4.9106e-41
222	0x800088d8	-4.909e-41
223	0x000089b6	4.9401e-41
224	0x8000899f	-4.9369e-41
225	0x80008996	-4.9357e-41
226	0x0000892f	4.9212e-41
227	0x8000898d	-4.9344e-41
228	0x80008935	-4.922e-41
229	0x800089bd	-4.9411e-41
230	0x8000896d	-4.9299e-41
231	0x80008a0a	-4.9519e-41
232	0x000089bc	4.941e-41
233	0x80009079	-5.1827e-41
234	0x80008a06	-4.9513e-41
235	0x000089c3	4.942e-41
236	0x800089a1	-4.9372e-41
237	0x00008913	4.9173e-41
238	0x00008958	4.927e-41
239	0x800089b5	-4.94e-41
240	0x38aeaddd	8.329351e-05
241	0xb91f74c0	-0.00015206914
242	0x37fd83d7	3.0221343e-05
243	0x37b737e4	2.1841326e-05
244	0xb891db29	-6.9549606e-05
245	0x37f1b6e2	2.88146e-05
246	0x37f62378	2.9342002e-05
247	0xb7d91f68	-2.588304e-05
248	0x386fa4dc	5.7135578e-05
249	0xb8a216a7	-7.728981e-05
250	0xb94bd802	-0.00019440058
251	0xb8422371	-4.628621e-05
252	0xb5f6374b	-1.8344521e-06
253	0xb92718da	-0.00015935619
254	0x38d505c3	0.00010157705
255	0xb6e710e4	-6.886303e-06

weight f4 [2, 16]
0	0xbe1a94c7	-0.15095817
1	0xbf832f7b	-1.0248865
2	0xbf17459a	-0.5909058
3	0x3fbf9857	1.4968365
4	0x3ff51c13	1.9149193
5	0x3fd4289e	1.6574895
6	0xbd85f0ab	-0.065400444
7	0xbfca5bf3	-1.5809311
8	0xbee08d71	-0.4385791
9	0xbf2d5146	-0.6770214
10	0x3e8b6ba2	0.27230555
11	0x3eb9d456	0.36294812
12	0x3f83bc98	1.0291929
13	0x3e42e6ce	0.19033358
14	0x3f9d412c	1.2285514
15	0xbf25c2f7	-0.6475062
16	0x3efe2bcf	0.49642798
17	0xbfadad29	-1.3568469
18	0xbff836e4	-1.9391751
19	0x3f93f3e1	1.1558801
20	0x3f11286d	0.5670231
21	0xbd9d9bd8	-0.076957405
22	0x3ecdb1b8	0.4017465
23	0x3f117792	0.56823075
24	0xbf130c51	-0.5744067
25	0x3e94a094	0.2902876
26	0xbe947f7c	-0.29003513
27	0x3e52030a	0.20508972
28	0xbfc4f130	-1.5386105
29	0x3f990511	1.1954671
30	0xbd98ad1a	-0.074548915
31	0x3efcb771	0.49358705

weight_ih_l0 f4 [128, 32]
0	0x3c7f43da	0.015580142
1	0xbe5e1bd3	-0.21690302
2	0xbd86c39f	-0.065802805
3	0x3a19f677	0.0005873213
4	0xbd8403bd	-0.064460255
5	0x3d1746f4	0.0369329
6	0x3e0a40aa	0.1350123
7	0x3dfce5f8	0.123485506
8	0x3d50ca7d	0.050974358
9	0x3c8cac37	0.017171962
10	0xbd96d615	-0.07365052
11	0xbd40be18	-0.047056288
12	0xbe6311ab	-0.22174709
13	0x3954f255	0.00020308171
14	0x3e1021a9	0.1407534
15	0x3e0fcdb2	0.1404331
16	0x3d78d2da	0.06074796
17	0xbc0d34b0	-0.008618519
18	0xbe329a54	-0.17441684
19	0x3d388227	0.045045998
20	0xbd95327c	-0.0728502
21	0xbe044c3d	-0.12919708
22	0x3dd01f1b	0.10162183
23	0x3d9cd9e9	0.076587506
24	0x3cc4da0f	0.02402976
25	0x3d519635	0.05116864
26	0xbdfcb33c	-0.12338874
27	0x3d6079c3	0.05480362
28	0xbdb471f9	-0.08810801
29	0x3e0182c5	0.12647541
30	0x3bbffd81	0.0058590774
31	0x3dd57863	0.104233526
32	0x3cfeacbd	0.031088227
33	0x3cbb0ce4	0.022833295
34	0x3e433550	0.19063306
35	0x3dcf742b	0.10129579
36	0xbda5f172	-0.08102693
37	0xbd8fdc42	-0.07024433
38	0x3ce9b990	0.028530866
39	0xbe01d2c4	-0.12678057
40	0xbdb0ef99	-0.086394496
41	0x3b1ae212	0.0023633284
42	0x3b67424d	0.003528732
43	0xbcd2c2e0	-0.02572769
44	0xbd38aba9	-0.045085583
45	0x3d1dfa5f	0.03856885
46	0x3c88f8bf	0.016720174
47	0x3dc0e6dc	0.09419033
48	0xba3ed009	-0.00072789245
49	0x3d7dc49f	0.06195509
50	0xbd215768	-0.039389998
51	0x3dd76707	0.10517698
52	0x3c8f2bfe	0.017477032
53	0xbe05ad09	-0.13054289
54	0x3cb91b16	0.022595923
55	0x3e1ed1da	0.1550974
56	0xbd52f31b	-0.051501375
57	0x3dd1821c	0.102298945
58	0xbd1b0257	-0.03784403
59	0xbd116894	-0.035500124
60	0xbe3ef8af	-0.18649553
61	0x3d9930ec	0.07480034
62	0xbdb5dcfd	-0.08880041
63	0x3c8f4424	0.017488547
64	0x3e221d8e	0.15831587
65	0x3d53e2a5	0.051729817
66	0xbe18c34d	-0.14918251
67	0xbd8b38b8	-0.067979276
68	0xbe661cd7	-0.22471939
69	0x3e3e0eb0	0.1856029
70	0x3ec26491	0.3796735
71	0xbe6d0a0c	-0.23148364
72	0x3e8fd3b4	0.28091204
73	0xbeb97dc0	-0.36228752
74	0xbe682e60	-0.2267394
75	0xbd9b5bdb	-0.075858794
76	0x3e65c3d5	0.22437985
77	0x3e026bce	0.12736437
78	0x3dacab64	0.08431128
79	0x3d7f6092	0.062347956
80	0xbe2cc510	-0.16872048
81	0x3e14260d	0.1446764
82	0x3d31313d	0.043259848
83	0xbd13fae8	-0.036127955
84	0x3e5a08bc	0.21292394
85	0x3ce8182a	0.028331835
86	0x3c09f673	0.0084205745
87	0x3d0f031a	0.034915067
88	0xbd0736e4	-0.033011332
89	0xbcbd9f5e	-0.023147281
90	0x3beecf0a	0.0072878646
91	0x3d50b8e9	0.050957594
92	0x3e146cb4	0.14494592
93	0x3d8d476a	0.06898387
94	0xbcdb42a6	-0.026765179
95	0xbc79d5b6	-0.015248707
96	0xbdd6e2fc	-0.104925126
97	0x3d76c8dc	0.06025015
98	0x3e1f607f	0.15564154
99	0x3c8b6c53	0.017019426
100	0x3d99860d	0.07496271
101	0xbc146e84	-0.009059552
102	0x3daedef9	0.085386224
103	0xbd6b9564	-0.057515517
104	0x3d59354f	0.053029355
105	0xbb9a28a6	-0.0047045527
106	0xbdc7e1a3	-0.09759834
107	0xbd25fb8b	-0.040523093
108	0xbd870d39	-0.06594319
109	0xbddbeb3b	-0.10738226
110	0xbd9203df	-0.071296446
111	0xbb8b74bc	-0.004255859
112	0x3cc5c05d	0.024139578
113	0xba00ff6a	-0.0004920872
114	0x3e1882ce	0.14893648
115	0xbcc39b5e	-0.023877796
116	0x3e322ffc	0.17401117
117	0x3bd2ceca	0.0064333426
118	0xbdda5a07	-0.106617026
119	0xbe13743b	-0.14399807
120	0xbdcd423f	-0.10022401
121	0xbd4b7512	-0.049672194
122	0x3db3a1fb	0.0877113
123	0x3dbe5e79	0.09295363
124	0xbd99beac	-0.07507071
125	0x3e018dab	0.12651698
126	0x3cbede9d	0.02329951
127	0xbdedc7a0	-0.11610341
128	0xbe398197	-0.18115841
129	0xbdebd1e2	-0.11514641
130	0xbdc0a6ef	-0.0940684
131	0x3d92faa1	0.0717671
132	0x3da3f0ee	0.08004938
133	0xbd88417b	-0.066531144
134	0xbdab2767	-0.08357125
135	0xbd1438b8	-0.036186904
136	0x3cf3876e	0.029727664
137	0x3dc8d85d	0.09806893
138	0xbda39338	-0.07987064
139	0x3e5fbe55	0.2184995
140	0x3cc4c97c	0.024021856
141	0xbddcfd37	-0.107904844
142	0x3d335f01	0.043791775
143	0x3da3ba72	0.07994546
144	0xbc052284	-0.008125905
145	0xbdcc0756	-0.09962337
146	0x3cfaf5f9	0.030634867
147	0x3e09d34c	0.1345951
148	0x3e766e43	0.24065499
149	0x3e8fc18d	0.28077355
150	0xbb691e5a	-0.003557107
151	0xbe327f5d	-0.17431398
152	0xbcbdfe3c	-0.023192517
153	0xbe2ae6af	-0.16689561
154	0x3de9a1fd	0.1140785
155	0x3d9d01dc	0.0766637
156	0x3cfd0bcf	0.03088942
157	0xbe125793	-0.1429122
158	0x3e56c1ac	0.20972317
159	0xbe36c4a1	-0.17848445
160	0x3dce40dd	0.100709654
161	0x3d5d5594	0.05403669
162	0x3d3ae399	0.04562721
163	0x3d3af4a5	0.045643467
164	0xbdc90ab2	-0.09816493
165	0x3ce14186	0.027497064
166	0x3c270c18	0.0101957545
167	0xbd491679	-0.049093697
168	0xbd736836	-0.059425555
169	0xbd6ec641	-0.05829454
170	0x3c5d42d8	0.013504706
171	0x3bcc927f	0.0062430496
172	0xbda31b71	-0.079642184
173	0xbd2752be	-0.040850393
174	0x3dae49fa	0.08510204
175	0xbb85a0fb	-0.0040780283
176	0xbba19712	-0.004931339
177	0xbb7f32e6	-0.003894025
178	0xbe378490	-0.17921662
179	0x3dedbc1c	0.11608145
180	0xbd8a9e4f	-0.06768476
181	0xbcf46b85	-0.029836426
182	0x3d2e8076	0.04260298
183	0xbce2b9dc	-0.027676515
184	0xbcf9ea78	-0.030507311
185	0x3d193d26	0.03741183
186	0xbd536e08	-0.051618606
187	0xbb9f898e	-0.0048686927
188	0x3d359bb4	0.044337943
189	0x3cdf8760	0.027286232
190	0x3d47eca6	0.04880967
191	0x3c71313e	0.014721213
192	0x3c78b4e3	0.0151798455
193	0x3d5ebc23	0.05437864
194	0xbd6a7db6	-0.057248794
195	0x3cbbee51	0.022940787
196	0xbd24499c	-0.040109262
197	0xbdb11ab9	-0.08647675
198	0x3e43759c	0.19087833
199	0xbd94deb8	-0.07269043
200	0x3d8c8e96	0.068631336
201	0x3d00e093	0.03146417
202	0xbe2180eb	-0.15771835
203	0x3da6f6eb	0.081525646
204	0xbe865909	-0.26239803
205	0x3e1055d7	0.14095245
206	0x3e6513e1	0.22370864
207	0xbbc1db7b	-0.0059160567
208	0x3dec7ba0	0.11547017
209	0xbdf388b8	-0.118913114
210	0xbdd235bd	-0.10264156
211	0x3d5ce734	0.05393143
212	0x3dd9c5c8	0.10633427
213	0x3d21c854	0.03949769
214	0x3db28ecd	0.08718643
215	0x3e4a4ae6	0.19755134
216	0xbd8ea04c	-0.06964168
217	0x3d97d4bf	0.07413625
218	0xbda0b747	-0.078474574
219	0x3d09133c	0.03346561
220	0xbddfcc69	-0.1092766
221	0x3dac0e5d	0.08401177
222	0xbde06389	-0.10956485
223	0x3e186e3e	0.14885804
224	0x3da4e1c0	0.08050871
225	0xbb9676ab	-0.004591783
226	0x3c0016bd	0.007817921
227	0x3d7c6dd4	0.061628178
228	0x3c86ca43	0.016453868
229	0x3d6606d5	0.05615886
230	0x3deaaaf8	0.11458391
231	0x3c811931	0.015759083
232	0x3cbcfba2	0.023069207
233	0xbe053586	-0.13008699
234	0x3d23756a	0.039906897
235	0xbbc20773	-0.005921298
236	0x3dec1097	0.11526602
237	0xbd6c97cb	-0.05776195
238	0xbd8985ba	-0.067149594
239	0xbd53c3bd	-0.051700342
240	0xbd322c47	-0.043499257
241	0xbbfaf90d	-0.0076590837
242	0xbd808694	-0.06275669
243	0x3d3db681	0.046316627
244	0x3e4c7ba3	0.19969039
245	0x3d84fed2	0.064939156
246	0x3c16591e	0.009176521
247	0xbdc34294	-0.09534183
248	0xbd75d915	-0.06002148
249	0xbdc94c28	-0.09828979
250	0x3b73456e	0.003712024
251	0x3cf832b8	0.030297622
252	0xbce361e3	-0.027756637
253	0x3d92a8af	0.0716108
254	0x3df0d124	0.117586404
255	0x3caadad2	0.020856295

weight_hh_l0 f4 [128, 32]
0	0x3d815932	0.06315841
1	0x3d0de77e	0.034644596
2	0x3d70d863	0.058800112
3	0x3cf1421a	0.029450465
4	0x3db845e5	0.08997706
5	0xbcadb1b4	-0.0212029
6	0x3d16df6e	0.036834173
7	0x3e2c5e0f	0.16832756
8	0x3d80e43b	0.062935315
9	0x3da319f5	0.07963935
10	0xbe251dc3	-0.16124634
11	0xbde3eaaf	-0.11128747
12	0xbdf3b5dd	-0.11899922
13	0x3ce6d1a9	0.028176146
14	0x3d96675e	0.073439345
15	0xbd624a27	-0.0552465
16	0xbdba6512	-0.09101309
17	0xbdd43761	-0.10362125
18	0xbd85b140	-0.065279484
19	0xbe206829	-0.15664734
20	0x3d57998c	0.052636668
21	0xbd08fe50	-0.033445656
22	0x3c0eaf4f	0.008708789
23	0x3dd14471	0.10218132
24	0x3d5e26a9	0.054236088
25	0xbe186c95	-0.14885171
26	0xbe14ee23	-0.14543967
27	0xbcbbc316	-0.022920173
28	0xbc10e9bf	-0.008844792
29	0xbe2e00ae	-0.16992447
30	0x3e076f46	0.13226041
31	0x3bd54cbc	0.0065093916
32	0x3d125326	0.035723828
33	0xbd205568	-0.03914395
34	0xbd1ee7b3	-0.038795184
35	0xbc919693	-0.017771995
36	0xbd975fae	-0.07391296
37	0xbc5525a0	-0.013009459
38	0x3d3d47e9	0.046211157
39	0xbc07a67e	-0.008279441
40	0xbd41bcaf	-0.047299083
41	0x3d489b46	0.048976205
42	0xbdfbe511	-0.1229955
43	0xbd30a20a	-0.043123282
44	0xbd89cb88	-0.06728274
45	0x3d82e7cc	0.06391868
46	0x3c827879	0.015926586
47	0x3e80a37e	0.25124735
48	0xbe0976e5	-0.13424261
49	0x3d93865e	0.07203363
50	0xbd72137f	-0.059100624
51	0x3d696e6f	0.056990083
52	0xbc6762c3	-0.014122668
53	0x3d31c62f	0.043401893
54	0xbd74a73b	-0.059729796
55	0x3e026c1d	0.12736554
56	0x3d5e7adf	0.054316398
57	0x3d48e788	0.04904893
58	0xb9ae5812	-0.00033253484
59	0xbd057911	-0.03258616
60	0x3e225a04	0.1585465
61	0x3dc21a9f	0.09477734
62	0x3e42600c	0.18981951
63	0xbd86065b	-0.06544181
64	0xbaf71cf5	-0.0018853234
65	0x3d9a1f6b	0.07525524
66	0x3d8510fe	0.06497382
67	0x3dafe6ec	0.08588967
68	0xbd752e72	-0.059858747
69	0x3d1b15b5	0.0378625
70	0x3d181e24	0.03713812
71	0xbd679340	-0.056536913
72	0x3d29f354	0.04149182
73	0xbbe8c56f	-0.007103614
74	0x3e6c6fc1	0.23089506
75	0x3d325f01	0.043547634
76	0xbdc8cd73	-0.09804811
77	0x3daf344a	0.08554895
78	0x3d981ae9	0.07427008
79	0x3e8021bc	0.25025737
80	0xbdd53152	-0.10409798
81	0xbdc22e05	-0.09481434
82	0x3d3a1683	0.045431625
83	0x3cf7a646	0.030230653
84	0x3db5c07d	0.08874605
85	0x3dc1ff6b	0.09472545
86	0x3cfdab0f	0.030965356
87	0x3d874f31	0.066069014
88	0x3df4bc76	0.119500086
89	0xbcddc672	-0.027072165
90	0xbd8ffe08	-0.070308745
91	0xbd613919	-0.054986093
92	0xbe27af06	-0.1637536
93	0x3e02e16e	0.12781307
94	0x3d49700e	0.04917913
95	0x3db0c7b2	0.08631839
96	0xbda0b8c0	-0.07847738
97	0xbda33b0c	-0.07970247
98	0xbdfae9f4	-0.12251654
99	0xba0630af	-0.0005118949
100	0x3d3e9f0e	0.046538405
101	0x3d992b48	0.07478958
102	0x3dcfb91f	0.10142731
103	0x3d4abfdd	0.04949938
104	0xbdba8aec	-0.091085285
105	0xbdd05be4	-0.10173777
106	0x3de3bf95	0.11120526
107	0xbd00d3fc	-0.031452164
108	0x3d7cb650	0.061697304
109	0x3dd0c2f2	0.10193433
110	0x3d9c0fc3	0.07620194
111	0xbd56aa20	-0.052408338
112	0x3cbbc1ed	0.02291962
113	0xbdc9dd20	-0.09856629
114	0x3bb29c05	0.005450728
115	0xbcacbb75	-0.02108548
116	0x3dab0b53	0.08351769
117	0x3cb4639c	0.022020154
118	0x3de6ecc7	0.112756304
119	0x3b85fd70	0.00408905
120	0x3d0055ee	0.03133195
121	0x3ad49f79	0.0016221843
122	0x3cc6804a	0.024231095
123	0xbd2d7fb1	-0.042358104
124	0x3dfa1809	0.122116156
125	0xbd9f9cc9	-0.07793576
126	0xbcc8c62d	-0.02450856
127	0x3d0b53c4	0.034015432
128	0xbcdd3c0e	-0.027006175
129	0x3dac6cec	0.08419213
130	0xbd4232ab	-0.047411602
131	0xbd8f1a07	-0.06987386
132	0xbd2a7c42	-0.041622408
133	0x3dacf7e2	0.084457174
134	0x3d4fe4b0	0.050755203
135	0xbc8af994	-0.016964711
136	0xbcea94db	-0.028635433
137	0xbd8a81e9	-0.0676306
138	0xbd1d4a87	-0.038401153
139	0x3d0a9d73	0.03384156
140	0xbd4711a5	-0.04860081
141	0x3d91c051	0.071167596
142	0x3c43e0ff	0.011955499
143	0xbe181400	-0.1485138
144	0xbdb0722b	-0.08615526
145	0xbbef2b90	-0.007298894
146	0xbdc46d75	-0.0959119
147	0xbdf4c7d5	-0.119521774
148	0x3dc141ec	0.09436402
149	0x3c3786e7	0.011201597
150	0x3d9ee438	0.07758373
151	0x3c751a15	0.014959832
152	0x3da1a9e4	0.07893732
153	0x3bbddc60	0.005794093
154	0xbc3ea9de	-0.011637179
155	0x3d1d15df	0.038350936
156	0x3da49026	0.08035307
157	0x3d1f16ca	0.038840093
158	0x3bc087c4	0.0058755595
159	0xbcb7c2bd	-0.022431726
160	0x3d9ba9e4	0.076007634
161	0x3cf3eaaf	0.029774992
162	0xbcf06edf	-0.029349742
163	0x3d298eab	0.041395824
164	0xbdd8c8b4	-0.10585156
165	0x3ce30cc1	0.027716042
166	0x3c9ebb8c	0.019376539
167	0xbd81a9af	-0.06331193
168	0xbd1a97d8	-0.037742466
169	0xbdae969f	-0.085248224
170	0x3d3ac995	0.0456024
171	0xbc73baed	-0.01487611
172	0xbd6cadbc	-0.057782874
173	0xbd26cfa8	-0.04072538
174	0x3d8a9228	0.06766158
175	0x3db9cad4	0.090718895
176	0xbc4328b8	-0.011911564
177	0xbd503cb0	-0.050839126
178	0x3c7c12c8	0.015385337
179	0xbc1f6d44	-0.009730641
180	0x3dc607df	0.0966947
181	0x3cb7030b	0.022340318
182	0x3d1e23d3	0.038608383
183	0x3d873b08	0.06603056
184	0x3d987510	0.07444203
185	0xbc2efc3b	-0.010680254
186	0xbb80f632	-0.003935599
187	0xbd2eae38	-0.042646617
188	0x3ce5a1c4	0.028031237
189	0x3cae4879	0.021274792
190	0x3c20d7f8	0.009817116
191	0x3d60d591	0.054891173
192	0xbdace868	-0.084427655
193	0x3d7a3c9d	0.06109296
194	0x3d39cd57	0.045361843
195	0x3c645815	0.013937016
196	0x3caf6fdd	0.021415645
197	0x3d1799f2	0.037012048
198	0x3d3ca2fc	0.04605387
199	0xbdf43792	-0.11924662
200	0x3cbe800f	0.023254422
201	0xbcf90b56	-0.030400913
202	0xbc5c7563	-0.013455722
203	0xbd7736e8	-0.060355097
204	0xbe173f52	-0.14770249
205	0xbd5c1e45	-0.053739805
206	0xbc6c6730	-0.014428899
207	0xbbd8164a	-0.006594454
208	0x3c7ebc69	0.01554785
209	0xbd790647	-0.060797002
210	0xba12a55e	-0.00055940996
211	0xbb680d1f	-0.0035408211
212	0x3dc490c5	0.09597925
213	0xbcce5ea2	-0.025191609
214	0x3e2a9bd8	0.16661012
215	0x3d8b5a45	0.06804327
216	0x3cb9a5a0	0.022661984
217	0xbd8ca456	-0.06867282
218	0x3b0010ef	0.0019541343
219	0xbd344f88	-0.04402116
220	0x3cff1091	0.03113583
221	0xbd5f4a61	-0.054514293
222	0xbd0257bd	-0.031821955
223	0x3d53ab94	0.0516773
224	0x3d1b669f	0.037939664
225	0x3caef266	0.021355819
226	0x3cbf61e4	0.023362108
227	0xbda4f0a4	-0.08053711
228	0x3c189262	0.009312244
229	0xbd913edf	-0.0709207
230	0x3dc45a98	0.09587592
231	0xbd5a6cc4	-0.053326383
232	0x3dc54913	0.096330784
233	0xbc6e8aff	-0.014559506
234	0xbc456e9f	-0.0120503
235	0xb967b010	-0.00022095465
236	0x3c55b472	0.01304351
237	0x3c13e966	0.0090278145
238	0x3ca8c6e5	0.020602653
239	0x3d3bc44a	0.045841493
240	0xbd0787ce	-0.033088498
241	0xbd4c4bf6	-0.04987713
242	0xbd5aa632	-0.053381152
243	0x3be7357e	0.0070559373
244	0x3cb2f208	0.021843925
245	0xbd5a4870	-0.053291738
246	0x3c6b1f5c	0.014350738
247	0xbd2d85af	-0.04236382
248	0x3d18460f	0.037176188
249	0xbccb5dbb	-0.024824968
250	0xbdaf8fee	-0.08572374
251	0xbd3cef55	-0.046126682
252	0xbbc69bb8	-0.0060610436
253	0xbd8eec33	-0.06978645
254	0xbc19412f	-0.00935392
255	0xbd4edca2	-0.05050338

bias_ih_l0 f4 [128]
0	0xbdc5f7b3	-0.096663855
1	0xbc4b6546	-0.012414282
2	0x3db6ea9c	0.08931467
3	0xbd8ebdc8	-0.06969792
4	0x3da79bfc	0.081840485
5	0xbd3e43d5	-0.04645141
6	0xbb1f4269	-0.0024301058
7	0x3e0567cb	0.13027875
8	0x3da0a268	0.078434765
9	0x3e1236e9	0.14278759
10	0x3e1ec81a	0.1550602
11	0x3e0b0233	0.13575058
12	0x3d3378c6	0.04381635
13	0x3df04fb7	0.117339544
14	0xbb979ea1	-0.0046270643
15	0xb930e823	-0.00016871146
16	0xbd8ce841	-0.068802364
17	0x3da3e1a2	0.080020204
18	0x3caf8fb8	0.021430835
19	0x3dea1dae	0.11431442
20	0x3e31628d	0.1732275
21	0x3e07fb0e	0.13279364
22	0xbc5b43fd	-0.013382909
23	0x3e00ad12	0.12566021
24	0x3d51c2bd	0.051211108
25	0x3dd40473	0.10352411
26	0xbdf11d8a	-0.11773212
27	0x3ce06c9d	0.02739554
28	0xbd9c2f9e	-0.0762627
29	0x3d59dc72	0.05318875
30	0x3e19c764	0.15017468
31	0x3d0bd1c7	0.034135606
32	0x3d258525	0.04041018
33	0xbd8dcfb1	-0.069243796
34	0xbcfdefb9	-0.030998098
35	0x3e3901a6	0.18067035
36	0x3dc76a42	0.09737064
37	0x3c9d947a	0.019235838
38	0x3e410aad	0.18851729
39	0x3d54b6fa	0.051932313
40	0x3e1240fa	0.14282599
41	0x3bcf7d51	0.0063320776
42	0x3bd1422d	0.0063860626
43	0xbd7354e1	-0.05940712
44	0xbdea2ab9	-0.1143393
45	0x3dddc84e	0.10829221
46	0x3e38484e	0.17996332
47	0x3d72e06c	0.059296057
48	0xbd0eec06	-0.03489306
49	0xbd625dad	-0.055265117
50	0x3dab4cf7	0.08364289
51	0xbdb21bcf	-0.0869671
52	0x3d042d5c	0.03226982
53	0x3d172c99	0.036907766
54	0xbd3e1b79	-0.04641292
55	0xbd51b6cf	-0.05119973
56	0x3c9e2818	0.019306228
57	0x3d8d94cc	0.069131464
58	0xbd440135	-0.047852714
59	0xbd8d0851	-0.06886352
60	0x3e222417	0.1583408
61	0xbd64dae2	-0.055872805
62	0x3c37da09	0.011221417
63	0x3dd02dad	0.10164962
64	0x3e237c00	0.15965271
65	0x3d38acd8	0.04508671
66	0xbc7ca873	-0.015421021
67	0xbdad549e	-0.08463405
68	0x3c46751a	0.01211288
69	0xbdbb4f0e	-0.09145938
70	0x3d8028d3	0.062577866
71	0xbe06f387	-0.13178836
72	0xbd510d6d	-0.051038194
73	0xbc4f6a43	-0.012659612
74	0xbd81e3ac	-0.06342253
75	0x3df21106	0.11819653
76	0x3dbc8d71	0.09206665
77	0xbd8aefa3	-0.06783988
78	0xbda40b90	-0.08010018
79	0xbe0cd6ee	-0.13753864
80	0xbdd5dac6	-0.10442118
81	0xbd9e03c2	-0.077155605
82	0xbe02a1bb	-0.12757008
83	0xbd995446	-0.07486777
84	0x3e135124	0.14386421
85	0x3e1e5c72	0.15464953
86	0x3cf8b631	0.030360313
87	0x3d83b06c	0.06430134
88	0xbaf795d4	-0.0018889257
89	0x3e0be7bf	0.13662623
90	0xbdc01d80	-0.09380627
91	0xbdb42edb	-0.087979995
92	0x3d806107	0.062685065
93	0xbe3224fa	-0.17396918
94	0x3ced393a	0.028957952
95	0x3ca21230	0.019784063
96	0x3e12df63	0.14343028
97	0x3c81ac1a	0.015829135
98	0x3dd55c23	0.10417964
99	0x3dd7093a	0.10499807
100	0x3e8fdf5e	0.28100103
101	0x3df0dfe1	0.117614515
102	0x3e78d673	0.24300556
103	0x3c8bc2ff	0.017060755
104	0x3d975096	0.073884174
105	0x3d7ba330	0.061434925
106	0x3e37fa96	0.17966685
107	0xbd17cf3f	-0.03706288
108	0x3ddf00de	0.10888837
109	0x3d0a30ba	0.033737876
110	0x3d9823a9	0.07428677
111	0x3d0c2268	0.0342125
112	0x3e2f18ad	0.17099257
113	0x3dca3897	0.09874075
114	0x3e260347	0.16212188
115	0x3dcbf1bd	0.09958217
116	0x3dfa6c63	0.122277044
117	0x3cf7b215	0.030236283
118	0x3d84d2ab	0.06485494
119	0x3e1cacc1	0.15300275
120	0x3dbabef7	0.09118455
121	0x3da343af	0.07971894
122	0x3dab5688	0.08366114
123	0x3e43c42d	0.19117804
124	0x3cfdada5	0.03096659
125	0x3d5be2ed	0.05368321
126	0x3e5052cb	0.20344083
127	0x3dc2f6e2	0.095197454

bias_hh_l0 f4 [128]
0	0x3ddd4464	0.1080406
1	0xbdaea8e1	-0.08528305
2	0xbd1ccfcb	-0.038284104
3	0x3bcd94bf	0.0062738354
4	0x3e011619	0.12606086
5	0x3e0361e7	0.12830316
6	0x3d48da12	0.049036093
7	0x3ca6ff48	0.0203854
8	0x3df19e06	0.11797719
9	0x3bf99855	0.0076170363
10	0x3d8bc7dc	0.068252295
11	0x3dc63ea4	0.096799165
12	0x3e0e2b0e	0.13883612
13	0x3df88af4	0.12135878
14	0xbcb72709	-0.02235748
15	0xbd42c09f	-0.04754698
16	0x3d092801	0.033485416
17	0x3dcb7ba0	0.09935689
18	0xbc537be4	-0.012907956
19	0x3e014078	0.12622249
20	0x3db7265e	0.08942865
21	0x3ddca5b7	0.10773795
22	0x3d6abcf0	0.05730909
23	0x3d7e039d	0.062015165
24	0xbcaab797	-0.020839496
25	0x3d5a0fa3	0.05323757
26	0xbe052332	-0.13001707
27	0x3e051869	0.12997593
28	0x3e19c8a9	0.15017952
29	0x3d859fa8	0.06524593
30	0x3dcbb3bc	0.09946391
31	0x3df70702	0.120618835
32	0x3e42a026	0.19006404
33	0xbd09aba7	-0.033610966
34	0xbc8ca9e4	-0.017170854
35	0x3e11024b	0.14161031
36	0x3e1a131e	0.15046355
37	0xba920ec1	-0.0011143313
38	0x3b4cd10a	0.0031252527
39	0x3e073d5c	0.13207
40	0xbd66831d	-0.056277383
41	0x3c91787f	0.017757652
42	0x3de088fb	0.10963627
43	0x3e0af15a	0.13568631
44	0xbdc5efff	-0.09664916
45	0x3dbad1d5	0.091220535
46	0x3c6a4e65	0.014300917
47	0xbd6a8cbb	-0.057263117
48	0xbcd15722	-0.025554243
49	0xbdc51f42	-0.096251026
50	0x3c8cdc18	0.017194793
51	0xbd02a59d	-0.031896222
52	0x3df2f2e6	0.118627355
53	0x3d4a6063	0.049408328
54	0xbcf03854	-0.029323734
55	0xbd9d5547	-0.07682281
56	0xbdf80e29	-0.12112076
57	0xbdd963b1	-0.10614718
58	0x3d5e34ff	0.05424976
59	0x3da91cf1	0.08257473
60	0x3cbbaabd	0.022908563
61	0xbc6a9ba4	-0.014319334
62	0x3c11a90f	0.008890404
63	0x3dce0ca8	0.10061008
64	0xbddd4e0c	-0.10805902
65	0x3c40c7d3	0.011766392
66	0xbdb8ea48	-0.090290606
67	0xbe3af69e	-0.1825814
68	0xbdeb2621	-0.11481882
69	0xbd8e6726	-0.06953268
70	0xbd93a5ef	-0.07209384
71	0xbce42a6c	-0.02785226
72	0x3e2b5288	0.16730702
73	0x3dd60f4b	0.10452136
74	0xbd9f813c	-0.077883214
75	0xbd139660	-0.03603208
76	0xbdf3e727	-0.11909323
77	0x3e2fc7bf	0.17166041
78	0x3ddf6849	0.10908563
79	0xbe291859	-0.16513194
80	0xbdfbfa73	-0.12303629
81	0xbd052ca5	-0.03251328
82	0x3d1bc2bf	0.03802752
83	0x3e233e94	0.1594184
84	0x3ddc84df	0.10767531
85	0x3adf9b79	0.0017059884
86	0x3d413709	0.047171626
87	0x3c79de17	0.015250704
88	0x3d334865	0.043770213
89	0x3e1997f3	0.1499937
90	0xbe0225f3	-0.12709789
91	0x3dd57450	0.104225755
92	0x3dc65e83	0.096859954
93	0x3db49959	0.08818311
94	0x3c83e99c	0.016102605
95	0x3c754725	0.014970575
96	0x3ded0950	0.11574042
97	0xbd29b651	-0.041433636
98	0xbc252a02	-0.010080816
99	0x3e318df8	0.17339313
100	0x3df695e3	0.120403074
101	0x3e035343	0.1282473
102	0xbcaf8ea9	-0.02143033
103	0x3da04c27	0.07827025
104	0x3d386cd3	0.045025658
105	0x3e00c126	0.1257368
106	0x3d93f0d6	0.0722367
107	0xbd6371bc	-0.055528387
108	0x3e3d62cb	0.18494718
109	0x3dc65046	0.0968328
110	0x3e473ff1	0.19457985
111	0x3e86161d	0.26188746
112	0x3de05fcd	0.109557725
113	0x3d852570	0.06501281
114	0x3de11be8	0.10991651
115	0xbc25b640	-0.010114253
116	0x3e2766e5	0.16347845
117	0x3e013863	0.12619166
118	0xbd135b5e	-0.035975806
119	0x3daa2aa0	0.08308911
120	0x3e3db277	0.1852511
121	0x3e47c537	0.19508825
122	0x3df83859	0.121201225
123	0x3dba63ae	0.09101044
124	0x3d8ca74c	0.06867847
125	0x3e576529	0.21034683
126	0x3e3acb06	0.1824151
127	0x3e011f38	0.12609565

weight_ih_l1 f4 [128, 32]
0	0x3ddd167f	0.107953064
1	0x3d87b514	0.06626335
2	0xbddfba06	-0.10924153
3	0xbd5c387a	-0.053764798
4	0xbe1d41b9	-0.15357102
5	0xbdbf9970	-0.09355438
6	0x3d36a4bd	0.0445907
7	0xbdc0f596	-0.09421842
8	0x3d16cdae	0.036817245
9	0x3c01cdbe	0.007922588
10	0xbd9d284f	-0.07673704
11	0xbd5cb8b3	-0.05388708
12	0xbca9f964	-0.020748802
13	0x3df63233	0.120212935
14	0x3e19cec4	0.15020281
15	0x3e15ee09	0.14641584
16	0xbe1ea07a	-0.15490904
17	0x3d01a4af	0.031651195
18	0xbe054bc5	-0.13017185
19	0x3c3b81a7	0.011444486
20	0x3dab3aeb	0.08360847
21	0xbd888efa	-0.066678956
22	0xbca8aee7	-0.020591212
23	0x3bc00820	0.0058603436
24	0x3cd04ac6	0.02542628
25	0xbce9c1e8	-0.028534845
26	0xbd8fe272	-0.07025613
27	0xbdeebf90	-0.116576314
28	0x3deecf91	0.11660684
29	0xbd139ecf	-0.036040124
30	0x3e2d3790	0.16915727
31	0xbd6914b2	-0.056904502
32	0x3e2c611b	0.16833918
33	0x3abc45e2	0.0014364088
34	0xbd9a28b5	-0.075272955
35	0xbd90c246	-0.07068305
36	0xbe3b5e19	-0.18297614
37	0xbdb400b0	-0.08789194
38	0x3ce94aba	0.028478015
39	0xbdb2e9ad	-0.08735976
40	0x3bae4d9e	0.0053193113
41	0x3d8afded	0.06786714
42	0xbe0d806c	-0.1381852
43	0x3be210f7	0.006898995
44	0x3ca53730	0.020167917
45	0x3e011d13	0.12608747
46	0x3e0bdd17	0.13658558
47	0x3e381983	0.17978482
48	0xbe1b72c0	-0.15180492
49	0x3c40130c	0.011723291
50	0xbe10ef67	-0.14153825
51	0xbc62d8f5	-0.013845672
52	0x3e0468d7	0.12930618
53	0xbd465fbf	-0.048431154
54	0xbd2363b8	-0.03989002
55	0x3cc67013	0.024223363
56	0xbce138b7	-0.027492864
57	0x3b547046	0.0032415553
58	0xbe00fef1	-0.12597252
59	0xbdce799e	-0.100817904
60	0x3e1488e0	0.14505339
61	0xbd7e08b9	-0.062020037
62	0x3e7f2997	0.24918209
63	0xbd6acf1d	-0.057326425
64	0x3e3c00b6	0.18359646
65	0x3bff34ed	0.0077882917
66	0xbda5df61	-0.08099247
67	0xbd6a3578	-0.057179898
68	0xbe5a9ea7	-0.21349584
69	0xbdc94a85	-0.098286666
70	0x3cbb4e61	0.022864522
71	0xbdb6f44b	-0.08933314
72	0xbc1e7b8e	-0.009673012
73	0x3d834eaa	0.06411488
74	0xbe2149e1	-0.15750839
75	0xbc040217	-0.008057139
76	0x3ad41ea5	0.0016183449
77	0x3dca1f73	0.0986928
78	0x3e0db947	0.13840209
79	0x3e54b472	0.2077196
80	0xbe0c78ef	-0.13718008
81	0x3c96b866	0.018398475
82	0xbe08d438	-0.13362205
83	0xbd2ee901	-0.04270268
84	0x3dd46053	0.10369935
85	0xbd04217b	-0.032258492
86	0xbc911abd	-0.017712945
87	0x3d47ea53	0.048807453
88	0xbbde1e66	-0.006778526
89	0xbd4c689c	-0.04990445
90	0xbd9ab4ff	-0.075540535
91	0xbdca9e83	-0.09893515
92	0x3dfcaa3a	0.12337156
93	0xbc9e82fa	-0.019349564
94	0x3e74ae4e	0.23894617
95	0xbd473f77	-0.04864451
96	0x3e202f52	0.15643051
97	0x3d1b2111	0.03787333
98	0xbcb20dc6	-0.021735083
99	0xbd9632ff	-0.073339455
100	0xbe07b22e	-0.13251564
101	0xbe17287e	-0.1476154
102	0x3d5b070e	0.053473525
103	0xbd8b5049	-0.068024226
104	0xbda2929a	-0.07938118
105	0x3d9dc8ba	0.07704301
106	0xbe0e31ea	-0.13886228
107	0xbcecfb82	-0.028928522
108	0x3db5783e	0.08860825
109	0x3da5b47e	0.08091067
110	0x3d994fd2	0.07485928
111	0x3e271d90	0.16319871
112	0xbe2519cd	-0.16123123
113	0xbc19ed99	-0.009395027
114	0xbe3366c9	-0.17519678
115	0xbc014fba	-0.007892543
116	0x3dcf2294	0.10114017
117	0xbccc1ea1	-0.024916949
118	0xbd266cdb	-0.040631156
119	0xbcf0e17e	-0.029404398
120	0xbd4878c9	-0.048943315
121	0xbd3617b7	-0.04445621
122	0xbe0e903e	-0.13922212
123	0xbdd66893	-0.10469165
124	0x3e015ea4	0.12633759
125	0xbdb7cef5	-0.08975021
126	0x3e802874	0.25030863
127	0xbdbe470c	-0.09290895
128	0x3e0a947b	0.13533203
129	0x3d2d332b	0.042285126
130	0xbd36979c	-0.04457818
131	0xbd8ced6f	-0.06881224
132	0xbe012026	-0.1260992
133	0xbde2d84a	-0.1107641
134	0x3ddcc4b5	0.107797064
135	0xbd8bb5f7	-0.068218164
136	0xbc5bc9aa	-0.01341478
137	0x3cd25d86	0.025679361
138	0xbe10859c	-0.14113468
139	0xbccd96be	-0.025096294
140	0xbaae2d6e	-0.0013288686
141	0x3dc8d0c3	0.09805443
142	0x3e12d6d7	0.14339767
143	0x3e37f805	0.17965706
144	0xbe2162d7	-0.1576036
145	0xbbe27da3	-0.0069119497
146	0xbe2062f5	-0.15662749
147	0xbd237235	-0.03990384
148	0x3dbab63c	0.0911679
149	0xbc39be57	-0.011336884
150	0x3ce96e1d	0.028494889
151	0xbc1e9946	-0.009680098
152	0xbd2051d0	-0.039140522
153	0xbd673c85	-0.0564542
154	0xbddd9668	-0.10819703
155	0xbdba2eb0	-0.09090936
156	0x3e20d5c8	0.15706551
157	0xbd4cccab	-0.049999874
158	0x3e54a5ee	0.20766422
159	0xbdb65342	-0.08902599
160	0x3e8dbdc4	0.27683842
161	0x3cc60414	0.024171866
162	0xbe230b5f	-0.15922306
163	0x3bd88f2a	0.0066088634
164	0xbe49b545	-0.19698055
165	0xbdbb6955	-0.0915095
166	0x3e0a6550	0.1351521
167	0xbe51b35f	-0.20478581
168	0x3d557201	0.052110676
169	0x3d889029	0.06668121
170	0xbde35134	-0.11099473
171	0xbd96ac90	-0.073571324
172	0x3d499d6d	0.0492224
173	0x3d6ff9fc	0.058588013
174	0x3e419497	0.18904339
175	0x3e4dd4f2	0.20100763
176	0xbe3e6a4a	-0.18595234
177	0x3c879aff	0.0165534
178	0xbe0a3f28	-0.13500655
179	0xbd7bf25f	-0.06151044
180	0x3e3731fc	0.17890161
181	0xbda7b96e	-0.08189665
182	0xbd6ca872	-0.05777783
183	0x3d850fe2	0.0649717
184	0xbb1dd1ab	-0.002408127
185	0xbd303262	-0.0430168
186	0xbe0d46f3	-0.13796596
187	0xbe007742	-0.12545493
188	0x3dc49287	0.095982604
189	0x3cef6629	0.029223518
190	0x3e79cea4	0.24395233
191	0xbd86b04a	-0.06576593
192	0x3e34de75	0.17662986
193	0x3c017f46	0.0079038795
194	0xbe069bab	-0.1314532
195	0xbd42c866	-0.047554396
196	0xbe6a8381	-0.22901727
197	0xbde44227	-0.1114543
198	0x3dc579f3	0.096424006
199	0xbe190ac7	-0.14945517
200	0x3c8776d9	0.016536163
201	0x3ce108c8	0.027470008
202	0xbddf30f1	-0.10898007
203	0xbc8764ef	-0.016527621
204	0x3cb7b708	0.022426143
205	0x3dfc2998	0.12312621
206	0x3e001d06	0.12511072
207	0x3e532dd5	0.20622952
208	0xbdf7a68a	-0.12092312
209	0x3d4486e7	0.047980215
210	0xbe0aa3bc	-0.13539022
211	0xbc009e0f	-0.007850184
212	0x3e15b9a1	0.14621593
213	0xbd829b6c	-0.063773006
214	0xbce7f5dc	-0.028315477
215	0x3d04934f	0.032367047
216	0xbc5e783c	-0.013578471
217	0x3bf86f90	0.0075816587
218	0xbd9c45d1	-0.07630504
219	0xbdf789eb	-0.12086853
220	0x3dc19d53	0.09453835
221	0xbc0a5f1c	-0.008445527
222	0x3e8335ce	0.25626987
223	0xbdbb9ce1	-0.09160782
224	0x3e0c0470	0.13673568
225	0x3d4ffec7	0.050780084
226	0xbe0629ce	-0.13101885
227	0xbd9d18a6	-0.07670717
228	0xbe5e1978	-0.21689403
229	0xbdd0e304	-0.1019955
230	0x3db43c5d	0.08800576
231	0xbe1345d6	-0.14382109
232	0xbccfd01a	-0.025367785
233	0xbc524cff	-0.01283574
234	0xbe03c2a1	-0.12867214
235	0xbd4c77ef	-0.049919065
236	0xbc4d80ac	-0.012542885
237	0x3dfb9582	0.12284376
238	0x3e3c3b72	0.18382052
239	0x3e457e51	0.19286467
240	0xbe05beab	-0.13061015
241	0xbc45dec0	-0.0120770335
242	0xbe019421	-0.12654163
243	0xbd023303	-0.03178693
244	0x3d933125	0.07187108
245	0xbcefc743	-0.02926982
246	0xbd805b1d	-0.062673785
247	0x3d535a43	0.051599752
248	0xbc5bb779	-0.0134104425
249	0x3b937280	0.0044997334
250	0xbd7858e5	-0.06063165
251	0xbdecbcbd	-0.115594365
252	0x3dd954be	0.106118664
253	0xbd263549	-0.04057816
254	0x3e5dd0bf	0.21661662
255	0xbd842597	-0.06452482

weight_hh_l1 f4 [128, 32]
0	0xbc80c8ab	-0.015720686
1	0xbbe4a1ae	-0.0069772815
2	0x3c7aec3f	0.0153151145
3	0x3b20a6d4	0.00245135
4	0x3c1e7f01	0.009673835
5	0x3cf7e3fe	0.030260082
6	0xbbeab822	-0.0071630636
7	0xbb9200a0	-0.004455641
8	0xbc674bab	-0.014117162
9	0xbc605702	-0.013692619
10	0x3cbe0a62	0.02319831
11	0xbb6e9a13	-0.0036407753
12	0x3c0e0f92	0.008670704
13	0x3c010857	0.0078755235
14	0xbaa2bb94	-0.0012415522
15	0xbc4716d9	-0.012151443
16	0x3bfa7131	0.007642888
17	0x3c97e735	0.018542865
18	0x3b954dee	0.004556409
19	0x3c0cfa08	0.008604534
20	0x3c06155a	0.008183802
21	0xbd3c353f	-0.045949217
22	0x3bdf849d	0.0068212287
23	0x3c60157c	0.013676997
24	0x3c9f4a33	0.01944456
25	0x3bf0cdcb	0.007348751
26	0xbc212f3d	-0.009837923
27	0xbb4febc9	-0.0031726232
28	0xbbd8f131	-0.006620549
29	0x3c4ffdd0	0.012694791
30	0x3c910050	0.017700344
31	0xbc0ba985	-0.008524303
32	0xbbab29e1	-0.005223498
33	0x3ca5b6b6	0.020228725
34	0xba6038cd	-0.0008553386
35	0xbc015299	-0.007893228
36	0xbbb0af84	-0.005392017
37	0x3c55936f	0.013035639
38	0xbbaf82e5	-0.00535618
39	0x3bbce5c2	0.005764694
40	0xbb56d2ed	-0.003277953
41	0xbbcd6219	-0.0062677977
42	0x3b711128	0.0036783908
43	0xbc388c48	-0.011263914
44	0xbbb67a2b	-0.005568763
45	0x3c109930	0.008825585
46	0xb9e36fb0	-0.00043380028
47	0xbbe32a80	-0.0069325566
48	0xb95150c8	-0.00019961887
49	0x3c10120b	0.008793364
50	0xbb571617	-0.0032819563
51	0x3bc7b2b1	0.0060942997
52	0xbc3e5e2f	-0.011619135
53	0xbcbd6cc1	-0.023123147
54	0xbb11a6c5	-0.0022224647
55	0xbbec3329	-0.007208247
56	0x3baa0e7c	0.005189715
57	0x3b56dded	0.0032786087
58	0x3b85257b	0.004063306
59	0x3aedb43b	0.0018135378
60	0x3c1abe08	0.009444721
61	0x3b6c3f9c	0.0036048656
62	0xbbefb54a	-0.0073153125
63	0x3b544628	0.003239045
64	0xbc6ff867	-0.014646626
65	0x3ca6adce	0.020346548
66	0x3abba278	0.0014315387
67	0xbbd3d3f3	-0.0064644753
68	0x38f2c34b	0.000115758354
69	0x3c95fcc5	0.018309006
70	0x3c6e8150	0.014557198
71	0x3bf14f2f	0.0073641757
72	0xbabdd372	-0.0014482571
73	0xbaeec8c0	-0.0018217787
74	0xba89a998	-0.0010502813
75	0x3a3d37b1	0.00072180765
76	0xbbea9f4a	-0.007160102
77	0x3c329bd4	0.01090141
78	0x3af8c78b	0.0018980367
79	0xbc066584	-0.008202914
80	0x3b81e45c	0.00396399
81	0x3b30ff32	0.0027007577
82	0xbbacac80	-0.005269587
83	0xbb308b49	-0.002693849
84	0xbc24f606	-0.010068422
85	0xba950e3e	-0.0011372042
86	0xbba8de3d	-0.005153446
87	0xbc47c34b	-0.012192558
88	0xbbbe92a7	-0.005815822
89	0x3b551566	0.0032513975
90	0x3b448129	0.0029984212
91	0x3ad9372d	0.001657223
92	0x3c47b0cc	0.012188148
93	0x3c358f30	0.011081502
94	0xbc265c2f	-0.010153814
95	0x3c34fc23	0.011046442
96	0xbbf410de	-0.0074483
97	0x3c429424	0.01187614
98	0xbbc38728	-0.0059670396
99	0xbcc9f461	-0.024652662
100	0xbc2a2d0b	-0.010386716
101	0x3c36a915	0.011148711
102	0x3c4acc31	0.012377785
103	0x3c69e035	0.0142746465
104	0xbc818f74	-0.015815474
105	0x3c372041	0.0111771235
106	0x3b3f7867	0.0029216052
107	0xbc3a559c	-0.01137295
108	0xbc89a779	-0.01680349
109	0x3c825bf5	0.01591299
110	0x3c4a246d	0.012337786
111	0xbc920145	-0.017822871
112	0xbb52ff55	-0.0032195647
113	0xba8b6308	-0.0010634372
114	0xbc8ea4e2	-0.017412607
115	0xbc7072b0	-0.014675781
116	0xbc0519d7	-0.0081238365
117	0x3c16e478	0.009209745
118	0xbbf026a2	-0.007328824
119	0xbc2e8fb5	-0.01065438
120	0xbc741f75	-0.014900078
121	0x3bd81e01	0.0065953736
122	0x3bfde320	0.0077480227
123	0xbc179a2f	-0.009253069
124	0x3ca7c951	0.020481737
125	0x3b9326b2	0.004490697
126	0xbb27f3c8	-0.0025627483
127	0x3c98ea7c	0.018666498
128	0xbb17cb83	-0.0023162074
129	0x3cc525c5	0.024065861
130	0xbc255822	-0.010091813
131	0xba3799dd	-0.00070038234
132	0xbb27c088	-0.0025596935
133	0x3bfe5dfb	0.007762668
134	0x3ca7a3e1	0.020463886
135	0xba6a9954	-0.0008949239
136	0x3ac931c6	0.0015349917
137	0x3c9f554a	0.019449849
138	0x3bd7196f	0.006564311
139	0x3ba73e4f	0.0051038633
140	0xbcaf73f8	-0.021417603
141	0xb989ca49	-0.0002628139
142	0x3c7b96fe	0.015355824
143	0xbbf3702e	-0.0074291443
144	0x3b726d15	0.0036991287
145	0x3c2f6664	0.010705564
146	0xbad1364d	-0.0015961617
147	0xbc7fada6	-0.015605366
148	0xbbe80b01	-0.00708139
149	0xbc15b404	-0.009137157
150	0xba849159	-0.0010114118
151	0xbc5281a0	-0.012848288
152	0xbc996c8f	-0.018728523
153	0xbb2e3f3f	-0.002658799
154	0x3c0ea5eb	0.00870655
155	0x3b1e7c39	0.002418293
156	0x3c5a9fc8	0.013343759
157	0x3c78a2b1	0.015175507
158	0xbb9809ac	-0.004639825
159	0x3cb4e380	0.022081137
160	0xbc467a21	-0.012114079
161	0x3d10ad9a	0.03532181
162	0x3c0c089e	0.008546976
163	0x3c970a36	0.018437486
164	0x3ca59d7e	0.0202167
165	0xbca6c1d3	-0.020356094
166	0xbb8bf023	-0.00427057
167	0xbbb6a818	-0.0055742376
168	0xbc86e728	-0.016467646
169	0xbce7792e	-0.028256025
170	0x3ccd2923	0.02504403
171	0xbc306b70	-0.010767803
172	0x3ceced6a	0.028921802
173	0xbc42b0b2	-0.011882948
174	0xbcb3cd91	-0.021948608
175	0xba7f17c4	-0.00097310194
176	0x3b54f85b	0.0032496664
177	0x3ce18854	0.027530827
178	0xbc0fd692	-0.008779185
179	0xbc1bde04	-0.009513382
180	0xbb0bd283	-0.0021335192
181	0xbd16e66c	-0.03684084
182	0x3c52cdd4	0.012866456
183	0x3c935060	0.017982662
184	0x3d02ee3b	0.031965476
185	0x3cfdbdba	0.030974258
186	0xbca85fea	-0.020553548
187	0x3c5f71cf	0.013637974
188	0xb991268e	-0.0002768528
189	0x3beff0a5	0.0073223882
190	0x3c4a3bf9	0.0123434
191	0xbc3de157	-0.01158937
192	0xbcb2b212	-0.021813426
193	0x3c946a5e	0.018117126
194	0x3c0ddf7f	0.008659243
195	0x3c5a78e9	0.013334491
196	0x3c5a4ab5	0.013323476
197	0x3d023467	0.031788256
198	0xbbb103a9	-0.0054020477
199	0x3b75dbb6	0.003751499
200	0xbc8a0bff	-0.016851423
201	0xbcf1c654	-0.029513516
202	0x3bd1918b	0.006395524
203	0xbcd24b2e	-0.025670614
204	0x3c63ad1b	0.013896252
205	0xbbf42f59	-0.0074519333
206	0xba50bc20	-0.0007962603
207	0xbac18937	-0.0014765625
208	0x3c8765d7	0.016528053
209	0x3cd47cf7	0.025938494
210	0x3c2922dd	0.010323253
211	0x3c2e58b9	0.01064127
212	0x391e9fcf	0.00015127588
213	0xbd419808	-0.04726413
214	0x3c396816	0.01131632
215	0x3b93c0e6	0.0045090793
216	0x3c885af8	0.01664494
217	0x3c9750ca	0.01847114
218	0xbbf3ac6f	-0.007436327
219	0xb9b39c68	-0.00034258072
220	0x3ba94b76	0.0051664663
221	0x3a858104	0.0010185544
222	0xba111084	-0.0005533772
223	0x3ba75fd6	0.00510786
224	0xbcb2b264	-0.021813579
225	0xbb4de9bf	-0.003141984
226	0x3cd95800	0.02653122
227	0x3c97eee8	0.018546537
228	0x3c935e0c	0.017989181
229	0x3d33cf9f	0.043899175
230	0xbc877bca	-0.01653852
231	0x3cd4485e	0.025913414
232	0xbc1c1c8f	-0.009528293
233	0xbc7a7ed3	-0.015289026
234	0x3c296f98	0.010341547
235	0xbd082be5	-0.033244986
236	0x3a2916f8	0.0006450261
237	0x3ac07a0c	0.001468481
238	0xbc4bab6d	-0.012431008
239	0xbb2179fd	-0.002463936
240	0x3b74bd5c	0.0037344312
241	0x3ce728ea	0.028217752
242	0x3c3501fe	0.011047838
243	0x3c862a99	0.016377734
244	0xbb5f63f5	-0.0034086679
245	0xbd0a8df4	-0.033826783
246	0x39a89ea2	0.00032161648
247	0x3be85545	0.007090243
248	0x3c77e393	0.0151299415
249	0x3c074372	0.008255826
250	0xbc48974a	-0.012243101
251	0x3b663cba	0.003513141
252	0x3c67e9cd	0.014154864
253	0x394d869c	0.0001960047
254	0x3cb18e76	0.021674376
255	0xbbd22090	-0.006412573

bias_ih_l1 f4 [128]
0	0x3e1c6ea5	0.15276583
1	0x3da0fab8	0.07860321
2	0x3d308e07	0.043104198
3	0x3d93edfb	0.072231255
4	0x3da2b7a4	0.07945183
5	0x3d8a7c4a	0.067619875
6	0x3dc94d0f	0.09829151
7	0x3dd2b595	0.1028854
8	0x3da49cce	0.080377206
9	0x3de7b036	0.113129064
10	0x3d7fb2a1	0.062426213
11	0x3da45b4a	0.080252245
12	0x3dac6343	0.0841737
13	0x3d9e4e32	0.07729758
14	0x3d7ef07c	0.062241063
15	0x3c77194b	0.015081714
16	0x3d0d4462	0.034489043
17	0x3d80c39c	0.062873095
18	0x3c6c74e8	0.0144321695
19	0x3da180d7	0.078859024
20	0x3bf0e1a1	0.007351116
21	0x3e3c52ef	0.18391012
22	0x3d0b9b2f	0.03408354
23	0x3db5a93c	0.088701695
24	0x3cf22405	0.029558191
25	0x3dfd4765	0.12367133
26	0x3bb2dffc	0.00545883
27	0x3da93a21	0.0826304
28	0x3da63e9b	0.0811741
29	0x3d564e53	0.05232079
30	0x3cbd5cd8	0.02311556
31	0x3d8d4574	0.06898013
32	0xbe4b6377	-0.19862162
33	0xbd218c6d	-0.03944056
34	0xbdee9128	-0.1164878
35	0xbe14221b	-0.14466135
36	0xbe00b252	-0.12568024
37	0xbe623dba	-0.2209386
38	0xbd19ce7e	-0.037550442
39	0xbe02a427	-0.12757932
40	0xbdce3d3d	-0.10070274
41	0xbd7a92c7	-0.061175134
42	0xbe0096d5	-0.12557538
43	0xbddea44e	-0.108711824
44	0xbdd914b4	-0.10599652
45	0xbd1c7a91	-0.038202826
46	0xb8dbe37a	-0.000104851046
47	0x3c00c62e	0.00785975
48	0xbdc478eb	-0.09593376
49	0x3d0ebd54	0.034848526
50	0xbe0384c7	-0.1284362
51	0xbd8dcadc	-0.06923458
52	0xbd9c0afc	-0.076192826
53	0xbdc10ae0	-0.09425902
54	0xbc11c4f4	-0.008897055
55	0xbdf83bc3	-0.12120774
56	0xbdb0afb8	-0.08627266
57	0xbe0b1b10	-0.13584542
58	0xbe07160e	-0.13192007
59	0x3cbd925b	0.023141077
60	0xbd9c3517	-0.076273136
61	0xbdbcb392	-0.09213938
62	0xbe403dc7	-0.18773566
63	0xbce1b5a8	-0.02755244
64	0xbd16109a	-0.036636926
65	0xbdc60845	-0.09669546
66	0x3df3dd96	0.119074985
67	0xbd41e162	-0.047334082
68	0x3c8a599f	0.016888438
69	0xbd1b1e40	-0.037870646
70	0xbdd660f4	-0.10467711
71	0x3ce84f76	0.028358202
72	0xbc590397	-0.013245485
73	0xbe10ad62	-0.1412864
74	0x3d22e197	0.03976592
75	0xbd95f8c2	-0.073228374
76	0xbd3b03dd	-0.04565798
77	0xbda3b9c0	-0.079944134
78	0x3df19476	0.11795895
79	0xbe397f3c	-0.18114942
80	0x3d8548eb	0.065080486
81	0x3d58d620	0.05293858
82	0xbd87f351	-0.06638206
83	0xbd35f720	-0.04442513
84	0x3e16e5e0	0.14736128
85	0x3dca716e	0.09884916
86	0x3aa3e63e	0.0012504531
87	0xbe10c625	-0.14138086
88	0x3e1890c7	0.14898978
89	0xbe2ef6c4	-0.17086321
90	0x3c86fbcf	0.016477494
91	0x3ca1fc44	0.01977361
92	0x3d90f477	0.07077878
93	0xbe0db523	-0.1383863
94	0x3dd044aa	0.10169347
95	0x3dc90ab6	0.09816496
96	0x3d0b8e55	0.034071285
97	0x3d3b36c0	0.04570651
98	0x3d5a0431	0.053226653
99	0x3e1d6119	0.15369071
100	0x3e185106	0.14874658
101	0x3d4c36f2	0.049857087
102	0x3e0398d1	0.12851264
103	0x3e2345fa	0.15944663
104	0x3ddf1677	0.10892957
105	0x3db0f90e	0.086412534
106	0x3dc393af	0.09549653
107	0x3e003e43	0.12523751
108	0x3e11b7c5	0.14230259
109	0x3cc618d5	0.024181763
110	0x3e1df9d6	0.15427336
111	0x3dcfa549	0.101389475
112	0x3dcfd00f	0.10147106
113	0xbc4385f5	-0.011933793
114	0x3dbe2a61	0.09285427
115	0x3d8695a9	0.06571514
116	0x3d122eed	0.035689283
117	0x3e00cbeb	0.12577789
118	0x3defcc65	0.11708907
119	0x3bc2b5f1	0.0059420993
120	0xbbfc6d61	-0.0077034687
121	0x3d1bdea1	0.038054112
122	0x3dbd3c75	0.09240047
123	0x3dbcb5b4	0.092143446
124	0x3c6eb234	0.014568854
125	0x3daeeb80	0.08541012
126	0xbc4d678d	-0.012536895
127	0x3c9a2c56	0.01881997

bias_hh_l1 f4 [128]
0	0x3d016ea0	0.03159964
1	0x3d31ffff	0.043457028
2	0x3da74335	0.081671156
3	0xbbf1723c	-0.007368354
4	0x3d02dc56	0.03194841
5	0x3e09ccc2	0.13457015
6	0x3d7de93e	0.061990015
7	0xbb5b6940	-0.0033479482
8	0x3d294b65	0.041331667
9	0x3e0cb17a	0.13739577
10	0x3d555c5d	0.052090038
11	0x39f814e4	0.0004731781
12	0x3db48df7	0.0881614
13	0x3d8c8536	0.068613455
14	0x3d4d574f	0.050132092
15	0x3d98728d	0.07443724
16	0xbcb653ad	-0.022256697
17	0x3defa416	0.11701219
18	0x3d8eb1e1	0.069675215
19	0x3b5448f0	0.0032392107
20	0x3dcf0307	0.10107999
21	0x3e3ddd26	0.18541393
22	0xbb8ea26a	-0.0043528574
23	0x3d515654	0.05110772
24	0x3d8cc5a3	0.06873634
25	0x3e08e695	0.1336921
26	0x3ddf585f	0.10905527
27	0x3dd71de3	0.10503747
28	0x3d40d12c	0.04707448
29	0x3d7cea64	0.06174697
30	0x3d73646d	0.059421945
31	0x3d706157	0.05868658
32	0xbc516a20	-0.01278165
33	0xbdfa6029	-0.12225372
34	0xbdfe6cb8	-0.1242308
35	0xbd0ac80f	-0.033882197
36	0xbdb62d3f	-0.08895349
37	0x3c95eb8e	0.018300798
38	0xbde7ee51	-0.11324752
39	0x3d42e45f	0.047581073
40	0xba6734fe	-0.0008819847
41	0x3d8298e8	0.06376821
42	0xbdd9b5f7	-0.1063041
43	0xbd131606	-0.035909675
44	0xbd24cc79	-0.040234063
45	0xbe1513e0	-0.14558363
46	0xbe061a33	-0.13095932
47	0xbd9645c3	-0.07337525
48	0xbdda16a7	-0.10648852
49	0xbe1df2be	-0.1542463
50	0xbdf4db52	-0.119558945
51	0xbd46c5dd	-0.04852854
52	0xbcb6d86a	-0.022319991
53	0x3b0d1e49	0.0021532944
54	0xbbb43853	-0.0054998784
55	0xbdf7430c	-0.12073335
56	0xbd03e1a8	-0.032197624
57	0xbaaca5a4	-0.0013171923
58	0xb92cb5ed	-0.00016470971
59	0xbe0d22c5	-0.13782795
60	0xbd65cc83	-0.05610324
61	0xbd7c8eeb	-0.061659735
62	0xbdc40f96	-0.09573285
63	0xbdadc35b	-0.08484527
64	0xbe052c82	-0.1300526
65	0x3e28ba27	0.16477261
66	0xbdd186af	-0.10230767
67	0xbdd82350	-0.1055361
68	0x3da62773	0.08112993
69	0x3de5b29a	0.11215706
70	0x3ddbff1e	0.10742019
71	0x3d96b798	0.073592365
72	0xbca3602a	-0.019943316
73	0x3d9ae6d4	0.07563558
74	0xbc688bd0	-0.01419349
75	0x3d05465f	0.032537814
76	0x3df0e883	0.11763098
77	0x3e392b81	0.18083002
78	0x3d9dfce9	0.077142544
79	0x3d4ff341	0.050769094
80	0x3ccd17fe	0.025035854
81	0xbdcba829	-0.099441834
82	0xbc85e6bb	-0.016345372
83	0x3c20251e	0.009774474
84	0xbc23d0ca	-0.00999851
85	0xbd490cf7	-0.04908463
86	0xbdbd4285	-0.09241203
87	0x3da3bf69	0.07995493
88	0x3dc83498	0.097756565
89	0x3e0c40c2	0.13696578
90	0x3d52f01b	0.051498514
91	0x3df3ab80	0.118979454
92	0x3d74880a	0.05970005
93	0x3e0ba82f	0.13638376
94	0xbc2c6cc8	-0.010523982
95	0xbd79739a	-0.060901262
96	0x3d171141	0.03688169
97	0x3db6bc77	0.089226656
98	0x3cc10153	0.023560202
99	0xbb4391f5	-0.0029841636
100	0x3dbafda2	0.09130408
101	0x3db1a5b4	0.086741835
102	0x3dc095a8	0.09403545
103	0x3dbec611	0.09315122
104	0x3cdbd746	0.026836049
105	0x3d8446f1	0.064588435
106	0x3bda1304	0.006655099
107	0x3dab60ff	0.0836811
108	0x3bb7d484	0.0056100506
109	0x3e06da2d	0.13169165
110	0x3de0dbbe	0.109794125
111	0x3d9e264e	0.0772215
112	0x3e1b56eb	0.15169875
113	0x3e1dbc29	0.15403809
114	0x3d440f35	0.047866065
115	0x3d2a2e41	0.041548017
116	0x3cfcc068	0.030853465
117	0x3e1bde4d	0.1522152
118	0x3dffe090	0.12494004
119	0x3cb16222	0.021653239
120	0x3dddc2ac	0.10828146
121	0x3df9c3a7	0.12195521
122	0x3cba16bf	0.022715924
123	0x3d87be4c	0.06628093
124	0xbb291edf	-0.0025805754
125	0x3d671f1d	0.056426156
126	0x3d0e705e	0.03477513
127	0x3da47b76	0.08031361
