data/model/input_class.pt (torch, 103003 bytes, 13 tensors)

weight f4 [128, 16]
0.087351345 -0.19083013 0.13888192 -0.009027778 -0.06379659 -0.25996718 -0.019603424 0.00680875
0.116917625 0.05887759 0.04967831 -0.10708231 -0.010304863 -0.019387394 0.108492576 0.060041416
0.007201708 0.006886194 0.0021085178 2.053645e-05 0.002529066 -0.0042726323 0.0001988229 -0.001527645
0.008984899 -0.0046271784 -0.0038491213 -0.0055981693 0.0055396114 -0.0005387859 0.006546352 0.0073936703
0.008544453 0.008951628 0.005532244 0.002601852 0.0024734922 -0.007387699 -9.115847e-05 -0.0037519643
0.019511048 -0.004842173 -0.004097299 -0.006685466 0.00888449 0.0016370083 0.011969846 0.008828469
0.0061090775 0.0057112286 0.0028482159 -7.7816134e-05 0.0017619189 -0.00450256 0.00067694753 -0.0016913185
0.007903269 -0.0038508573 -0.0037411083 -0.004741104 0.0051134042 0.0005825686 0.0056007667 0.0060739336
0.00711521 0.005841376 0.0011132789 0.00036810237 0.00084135175 -0.004378589 -0.0011059368 -0.0031772868
0.009238689 -0.003889252 -0.0032378999 -0.0062763127 0.005262083 -0.00030242847 0.005672091 0.006169608
0.005481264 0.0058059604 0.0039118533 -0.00026124224 0.0007790981 -0.0038196603 -0.0013816494 0.0003530405
0.009676891 -0.0019228176 -0.0034924357 -0.0036184522 0.005201408 0.0015442545 0.006173927 0.00553768
4.9265e-41 -5.266e-41 4.917e-41 4.9092e-41 -4.9474e-41 -4.9307e-41 4.9249e-41 -4.9404e-41
-4.9216e-41 4.947e-41 -4.9401e-41 -4.9406e-41 4.9305e-41 4.9476e-41 4.928e-41 -4.9079e-41
0.0016879992 -0.0021512727 0.009907831 -0.003955478 -0.002786399 -0.0014924561 -0.0008076517 0.0071052243
0.0052310987 0.0020260245 7.446541e-05 -0.0018330772 -0.0017087497 -0.004790126 -0.004612636 0.00474124
-4.9386e-41 4.92e-41 -4.9385e-41 4.9313e-41 -4.9232e-41 -4.9296e-41 -4.9282e-41 5.0545e-41
-4.9313e-41 -4.928e-41 -4.9229e-41 4.9375e-41 4.9281e-41 4.9408e-41 -4.9298e-41 4.9195e-41
-0.0025126524 -0.0035442195 0.0023536813 -0.0021639455 0.0016906314 0.0010543359 0.0025388557 0.0009156374
-0.002800389 -0.0018157895 8.562692e-05 0.002345536 -0.0014376387 -0.0024478547 -0.0020917463 0.0026901234
-4.9351e-41 4.9307e-41 4.9271e-41 4.9492e-41 4.9515e-41 -5.6604e-41 4.9249e-41 -4.9073e-41
5.6875e-41 -4.9288e-41 -4.9244e-41 -4.9257e-41 4.9183e-41 -4.9338e-41 -4.934e-41 4.9211e-41
-0.0031338932 -0.0036548325 -0.0002462109 -0.0019958117 0.0022169843 0.0021131684 0.005202738 0.0004329485
-0.0026702364 -0.002966102 -0.0031664318 -0.001006989 -0.0022483924 -1.9912404e-06 -0.0017714485 0.001440499
0.00021829485 -0.00011567479 0.00036715722 -0.00024634707 -5.0596254e-06 -0.0003826169 -0.0001050536 0.0004802255
1.9559766e-06 7.1318396e-13 5.5440494e-05 -3.7974553e-06 -2.1418296e-05 -2.2328709e-06 -9.3884466e-08 8.491657e-05
3.2232514e-09 -7.192871e-06 4.084413e-05 -6.1599517e-06 1.0516654e-16 6.791461e-08 -1.312921e-39 2.5649064e-05
8.3938715e-30 -4.387304e-11 -9.224159e-08 -3.663785e-06 5.2285325e-13 -7.248398e-08 -2.6763235e-08 -3.1369044e-07
0.0007605964 0.0019886685 -0.0011123593 0.0013858456 0.00017517107 -0.00042765707 -0.00088832574 -0.0013856349
0.0017286743 0.00063669815 0.0003332157 0.0001483139 0.00016897188 0.0008835069 8.207551e-05 -0.0011364339
0.0036918195 -0.00026660462 0.0017158233 0.0032848956 -0.002815844 -0.005188206 -0.004563121 -0.002349234
0.0009894491 0.0041294587 0.0012006197 -0.002911515 0.00014465478 -0.00021655665 0.003397381 -0.0010243134
00000000: 43e5 b23d f968 43be 1037 0e3e 3fe9 13bc
00000010: c9a7 82bd 6b1a 85be 5c97 a0bc ef1b df3b
00000020: 8272 ef3d a129 713d 7c7b 4b3d f84d dbbd
00000030: bad5 28bc 50d2 9ebc 5b31 de3d fded 753d
00000040: 4efc eb3b 95a5 e13b 0f2f 0a3b b145 ac37
00000050: b0be 253b 7001 8cbb 1e7b 5039 433b c8ba
00000060: 6635 133c 969f 97bb 8a41 7cbb d970 b7bb
00000070: a185 b53b 4f3d 0dba c882 d63b 9a46 f23b
00000080: 09fe 0b3c d9a9 123c d447 b53b d583 2a3b
00000090: 501a 223b 8314 f2bb 552c bfb8 84e3 75bb
000000a0: a2d5 9f3c 17ab 9ebb a342 86bb c111 dbbb
000000b0: 4090 113c e290 d63a 2c1d 443c 48a5 103c
000000c0: a82e c83b 4225 bb3b 22a9 3a3b 3831 a3b8
000000d0: 30f0 e63a 368a 93bb 2e75 313a 3baf ddba
000000e0: b67c 013c aa5e 7cbb 622d 75bb 435b 9bbb
000000f0: 588e a73b 84b7 183a a386 b73b d907 c73b
00000100: b526 e93b 0369 bf3b 71eb 913a ddfd c039
00000110: 298e 5c3a 447a 8fbb 15f5 90ba 073a 50bb
00000120: df5d 173c d2e2 7ebb f232 54bb 87a9 cdbb
00000130: 8d6d ac3b 438f 9eb9 f3dc b93b 6c2a ca3b
00000140: 2d9c b33b ed3f be3b 012f 803b 57f7 88b9
00000150: 633c 4c3a 4453 7abb 7618 b5ba 4b18 b939
00000160: d38b 1e3c 0d07 fcba 59e1 64bb 8e23 6dbb
00000170: 9370 aa3b 9568 ca3a a74e ca3b 6d75 b53b
00000180: 5589 0000 cb92 0080 1189 0000 d988 0000
00000190: ea89 0080 7389 0080 4989 0000 b889 0080
000001a0: 3289 0080 e789 0000 b689 0080 b989 0080
000001b0: 7189 0000 eb89 0000 5f89 0000 d088 0080
000001c0: db3f dd3a 5efc 0cbb 7554 223c f49c 81bb
000001d0: 059c 36bb 849e c3ba 97b8 53ba f1d2 e83b
000001e0: a369 ab3b 0dc7 043b 502a 9c38 dd43 f0ba
000001f0: 20f8 dfba 7df6 9cbb 9825 97bb 675c 9b3b
00000200: ab89 0080 2689 0000 aa89 0080 7789 0000
00000210: 3d89 0080 6b89 0080 6189 0080 e68c 0000
00000220: 7789 0080 5f89 0080 3b89 0080 a389 0000
00000230: 6089 0000 bb89 0000 6c89 0080 2389 0000
00000240: 50ab 24bb 2346 68bb 3840 1a3b fbd0 0dbb
00000250: 2d98 dd3a a431 8a3a ee62 263b 6307 703a
00000260: bb86 37bb c9ff edba 9a92 b338 90b7 193b
00000270: 266f bcba 306c 20bb ae15 09bb c84c 303b
00000280: 9289 0080 7389 0000 5989 0000 f789 0000
00000290: 078a 0000 ca9d 0080 4989 0000 cc88 0080
000002a0: 8b9e 0000 6589 0080 4689 0080 4f89 0080
000002b0: 1a89 0000 8989 0080 8a89 0080 2e89 0000
000002c0: 0162 4dbb ea85 6fbb de15 81b9 2acc 02bb
000002d0: d34a 113b 157d 0a3b bb7b aa3b 5dfd e239
000002e0: 22ff 2ebb ef62 42bb e983 4fbb f2fc 83ba
000002f0: c459 13bb 40a1 05b6 f32f e8ba 20cf bc3a
00000300: 14e6 6439 6e96 f2b8 027f c039 2528 81b9
00000310: dac5 a9b6 f999 c8b9 3950 dcb8 c7c6 fb39
00000320: 6c43 0336 52be 482b c788 6838 c9d7 7eb6
00000330: 71ab b3b7 6ed8 15b6 889d c9b3 3d15 b238
00000340: 0a80 5d31 4b5a f1b6 0d50 2b38 95b1 ceb6
00000350: 5e7f f224 74d8 9133 e44b 0e80 f228 d737
00000360: 793f 2a0f a7f4 40ae 5a16 c6b3 59df 75b6
00000370: 8c2b 132b 7da8 9bb3 fae4 e5b2 4969 a8b4
00000380: c362 473a 5254 023b 96cc 91ba 43a5 b53a
00000390: 20ae 3739 2937 e0b9 88de 68ba 319e b5ba
000003a0: af94 e23a 17e8 263a 74b3 ae39 b684 1b39
000003b0: 0b2e 3139 259b 673a f41f ac38 65f4 94ba
000003c0: 74f2 713b 11c7 8bb9 7ae5 e03a 6747 573b
000003d0: 068a 38bb d401 aabb 3c86 95bb 9bf5 19bb
000003e0: 67b0 813a 6950 873b 1d5e 9d3a 1ecf 3ebb
000003f0: 79ae 1739 7c13 63b9 98a6 5e3b 4142 86ba

weight f4 [2, 16]
6.42558e-05 -7.925162e-06 -0.00011511228 2.4194345e-05 2.9222161e-05 4.49793e-06 1.1590252 -2.3804121e-05
5.4968703e-05 -2.3850129 8.7564455e-05 -8.853245e-05 1.6550863e-05 -0.00011980763 -1.2161345 -0.23030469
-0.00020483587 -0.00021365937 -0.00012600516 -0.0002643065 -0.00016151588 0.00028086948 -2.5523353 0.0002670531
-0.00024611846 0.35336733 0.00014861146 -0.00020460623 0.00027902742 -0.00014337795 -0.5839998 2.0821373
00000000: 12c1 8638 50f6 04b7 6f68 f1b8 f6f4 ca37
00000010: 1d22 f537 edec 9636 f05a 943f f6ae c7b7
00000020: 328e 6638 0da4 18c0 cfa2 b738 7faa b9b8
00000030: b5d6 8a37 3b41 fbb8 4caa 9bbf fed4 6bbe
00000040: 36c9 56b9 c009 60b9 4120 04b9 9e92 8ab9
00000050: 975c 29b9 aa41 9339 7659 23c0 4303 8c39
00000060: 7609 81b9 90ec b43e 96d4 1b39 918b 56b9
00000070: 6d4a 9239 ba57 16b9 0381 15bf bd41 0540

weight_ih_l0 f4 [128, 32]
-0.061621375 -0.041381784 -0.054726 -0.026737373 -0.0077931685 -0.039836917 0.0447224 0.0070700105
-0.061267465 -0.03971194 0.09764612 0.035101105 0.00096423336 0.027790427 -0.009883375 -0.002932661
-0.0006364226 -0.00068791374 -0.0005321806 -0.0007106854 -0.0006355657 0.0006297965 0.17507483 0.0006930824
-0.0006969807 -0.48954722 0.0006117114 -0.0006946331 0.000591185 -0.00054524717 -0.2891668 -0.017987968
0.0883213 0.0075234137 -0.24137972 0.10900066 -0.13867652 -0.1535307 -0.06285059 -0.28711143
0.17735526 0.037947245 -0.0051892926 -0.20643453 0.041403793 0.28916875 -0.15570548 -0.089931384
0.0023001875 0.0022155724 0.0013152934 0.0021587391 0.0020652176 -0.0015032536 0.1961968 -0.0021167465
0.002335583 -0.45222884 -0.0016124794 0.0018284866 -0.0013937097 0.0012822159 -0.28316134 -0.02473861
0.051549476 0.14857471 0.07590557 -0.10168984 -0.20202349 0.015505414 -0.27237338 0.10974361
-0.01887092 -0.04162897 -0.04378851 -0.18396093 0.17949542 -0.16546638 0.0010243998 -0.008631563
0.0011450502 0.00057745766 0.00026730963 0.0010681796 0.0013091625 -0.0009939584 -0.16390145 -0.0011072237
0.0010244489 0.018967828 -0.00073323067 0.00028248483 -0.0009540628 0.00035551822 -0.058290496 0.11632526
0.10395518 -0.10567105 0.14478046 -0.086849734 0.09780589 -0.0020652404 -0.037861854 -0.06832067
-0.0079868445 -0.008434943 -0.2190389 -0.023288429 0.029848611 -0.11110769 -0.033167724 0.04006027
1.1523566e-05 2.2884768e-05 0.00014506413 1.2381799e-05 -4.0762134e-05 -0.00018733351 0.28095168 -4.8273945e-05
-3.9584293e-06 -0.39759395 0.00011269438 -5.0620238e-05 -0.00017749623 0.00020705348 -0.15644522 -0.15116626
0.13681208 0.24014482 0.002871264 -0.011528025 -0.24122597 -0.2720983 -0.16296642 -0.025821377
0.075248204 0.10787269 -0.1094001 -0.2590931 0.013007101 0.16866162 0.15343818 -0.032135125
0.0006567372 4.6766403e-05 -0.00025083113 0.00062206323 0.00074250903 -0.0005746094 0.25585654 -0.00059278554
0.000627482 -0.33912355 -0.0003296579 -7.7175995e-05 -0.00058357586 -0.00036343257 -0.14768976 -0.10846776
0.0060168924 -0.0136403 0.019492019 -0.050564006 -0.08439226 -0.0042774742 -0.056714352 -0.045299448
0.07107219 0.019167755 -0.023307836 -0.114494324 -0.022520183 0.053518176 0.009594645 -0.038278043
7.8084886e-05 0.00024300374 0.0004793503 -9.011542e-05 0.00011053475 4.3054402e-05 0.07085258 0.0001253805
4.7092235e-05 -0.22371075 -0.0003253777 0.00034561672 2.8251186e-05 0.00046955558 -0.13286649 0.020500619
-0.11468328 -0.059466906 -0.0048521874 -0.2250669 0.11186656 -0.07631132 0.13139679 -0.12565716
-0.061778814 -0.04800888 -0.14747538 -0.036166903 -0.05470481 0.13315463 -0.11664967 0.17522565
0.00019154778 -0.00024180513 -5.9265218e-05 0.00029587577 0.00013808512 8.595832e-05 -0.17339993 -0.00029687493
0.00020330548 0.13828512 0.00019887081 -6.0517534e-05 0.00016599879 -0.00017737449 0.06661193 0.10153017
-0.008526332 -0.057838883 0.04202137 -0.10878649 -0.2290331 0.06906003 -0.022175146 -0.10915899
0.13432318 0.11418939 0.13627331 -0.03773744 -0.07328369 -0.067218564 -0.07182566 -0.0042440803
-0.0014556488 -0.0016316974 -0.0016778714 -0.0013751729 -0.0014271381 0.0013998239 -0.3154114 0.0013482395
-0.0014725237 0.10588301 0.0015907567 -0.0016138747 0.0014181134 -0.0017090522 -0.041716363 0.2809438
00000000: b266 7cbd f27f 29bd 5f28 60bd 5608 dbbc
00000010: d65d ffbb 092c 23bd d62e 373d 8cab e73b
00000020: 98f3 7abd fda8 22bd b0fa c73d 2dc6 0f3d
00000030: 9bc4 7c3a c0a8 e33c e1ed 21bc e331 40bb
00000040: 99d5 26ba 1c55 34ba 0982 0bba 4a4d 3aba
00000050: 189c 26ba ed18 253a d146 333e f9af 353a
00000060: 95b5 36ba efa5 fabe 425b 203a 0a18 36ba
00000070: c1f9 1a3a ebee 0eba ac0d 94be 815b 93bc
00000080: cce1 b43d f886 f63b 3f2c 77be bd3b df3d
00000090: 3801 0ebe 2737 1dbe cfb7 80bd 4500 93be
000000a0: 9e9c 353e 926e 1b3d f10a aabb 9363 53be
000000b0: 0697 293d ed0d 943e 4271 1fbe f22d b8bd
000000c0: bebe 163b 2333 113b ec65 ac3a a279 0d3b
000000d0: 9a58 073b d208 c5ba d0e7 483e 1db9 0abb
000000e0: 9510 193b 8a8a e7be d559 d3ba d4a9 ef3a
000000f0: 23ad b6ba 0710 a83a 86fa 90be a0a8 cabc
00000100: 8b25 533d f823 183e 6174 9b3d c342 d0bd
00000110: 3fdf 4ebe 6c0a 7e3c 8674 8bbe 42c1 e03d
00000120: 3097 9abc 2483 2abd 955b 33bd 4160 3cbe
00000130: a6cd 373e 0570 29be 2745 863a 666b 0dbc
00000140: 8215 963a 8760 173a b125 8c39 2902 8c3a
00000150: 3498 ab3a b647 82ba c8d5 27be 4320 91ba
00000160: cd46 863a 6b62 9b3c 4736 40ba 791a 9439
00000170: 121a 7aba d964 ba39 04c2 6ebd f03b ee3d
00000180: 74e6 d43d 106a d8bd 5441 143e 46de b1bd
00000190: 744e c83d fc58 07bb 0815 1bbd b5eb 8bbd
000001a0: 41db 02bc b732 0abc bc4b 60be 60c7 bebc
000001b0: 1385 f43c 6e8c e3bd e1da 07bd 3d16 243d
000001c0: 5755 4137 aaf8 bf37 5b1c 1839 6cbb 4f37
000001d0: 02f8 2ab8 f56e 44b9 e6d8 8f3e c179 4ab8
000001e0: a6d2 84b6 6f91 cbbe 5656 ec38 1151 54b8
000001f0: 481e 3ab9 7f1c 5939 2d33 20be 54cb 1abe
00000200: 7718 0c3e 86e8 753e d12b 3c3b 0be0 3cbc
00000210: f103 77be 7850 8bbe abe0 26be 5a87 d3bc
00000220: bb1b 9a3d 5bec dc3d 290d e0bd daa7 84be
00000230: bc1b 553c a2b5 2c3e e61e 1d3e 1fa0 03bd
00000240: e328 2c3a 0b27 4438 fc81 83b9 f511 233a
00000250: f0a4 423a 62a1 16ba a1ff 823e 2a65 1bba
00000260: 9b7d 243a 9aa1 adbe efd5 acb9 8cd9 a1b8
00000270: 1dfb 18ba 188b beb9 fc3b 17be 5824 debd
00000280: 5a29 c53b 917b 5fbc baad 9f3c 341c 4fbd
00000290: d9d5 acbd 0e2a 8cbb 4f4d 68bd ea8b 39bd
000002a0: 4c8e 913d b205 9d3c 13f0 bebc 007c eabd
000002b0: 3f7c b8bc e035 5b3d dc32 1d3c 70c9 1cbd
000002c0: 81c1 a338 d2ce 7e39 4f51 fb39 59fc bcb8
000002d0: e4ce e738 5095 3438 281b 913d 9278 0339
000002e0: e784 4538 6e14 65be 7597 aab9 e433 b539
000002f0: f6fc ec37 af2e f639 270e 08be eaf0 a73c
00000300: 11df eabd 9293 73bd 19ff 9ebb f077 66be
00000310: 4c1a e53d 1c49 9cbd e18c 063e 45ac 00be
00000320: c80b 7dbd f6a4 44bd c903 17be bf23 14bd
00000330: 2712 60bd b059 083e 06e6 eebd 5a6e 333e
00000340: 37da 4839 128d 7db9 8b93 78b8 c61f 9b39
00000350: f1ca 1039 8644 b438 c08f 31be e1a5 9bb9
00000360: 662e 5539 9d9a 0d3e fa87 5039 35d4 7db8
00000370: f60f 2e39 9afd 39b9 d66b 883d 0def cf3d
00000380: 07b2 0bbc 77e8 6cbd 9a1e 2c3d 74cb debd
00000390: a787 6abe 586f 8d3d a7a8 b5bc c08e dfbd
000003a0: 048c 093e 20dc e93d 3b8b 0b3e 9392 1abd
000003b0: c215 96bd e3a9 89bd 5519 93bd ed11 8bbb
000003c0: 78cb beba aede d5ba 06ec dbba 253f b4ba
000003d0: cf0e bbba 4c7a b73a 9a7d a1be 69b7 b03a
000003e0: b201 c1ba 31d9 d83d f080 d03a a688 d3ba
000003f0: fddf b93a 4702 e0ba c7de 2abd ded7 8f3e

weight_hh_l0 f4 [128, 32]
0.17857221 0.012076404 -0.02867918 0.1706781 -0.09534489 0.05038129 0.004957834 -0.02866797
0.1454153 -0.05917034 -0.008057654 -0.06899525 0.20995463 -0.18406819 0.07812728 0.1615568
0.23089512 0.23293534 0.08477822 0.1734083 0.23081617 -0.04079421 0.09724631 -0.18331651
0.07419893 0.10612542 0.03452688 0.0018666175 -0.20021708 0.0348614 0.26021767 -0.0105644055
-0.23184629 -0.32776085 0.011412423 0.21347876 0.055590216 -0.50491494 -0.029457232 0.29689133
-0.19216347 0.03311376 0.033672694 0.28692728 -0.3560189 0.058579266 -0.06664527 0.016080638
-0.27275103 0.06864129 0.29312155 0.2430491 0.030344876 -0.010337914 0.055756204 -0.28898835
0.30771464 0.09087778 -0.120719366 0.19083647 -0.5123709 0.25005782 0.39463228 0.048630852
-0.06936663 -0.047539115 -0.06735473 -0.004371927 0.15273955 -0.09437166 -0.009612594 0.06153864
0.11855968 0.1310312 -0.30600724 -0.039807945 0.22395752 0.07770795 0.06387476 0.14974575
0.35302126 0.2608786 -0.060596425 0.45499837 -0.011743876 -0.05220955 0.2140878 0.10741848
-0.04818026 0.0054267924 -0.049293198 -0.16516288 -0.18837526 -0.04603273 0.08403053 -0.02806412
0.21400316 -0.036473498 -0.103644885 0.3356984 -0.29668698 0.15535562 -0.14152677 0.18763368
0.15239646 -0.11445577 0.11404949 -0.09339514 -0.27530947 8.763072e-06 -0.109574825 0.03258549
0.15145396 0.09367022 -0.272293 0.065301515 -0.016559767 -0.08194924 0.07424414 -0.19852366
0.037319347 -0.16863498 0.041903302 -0.10705764 -0.21991119 0.1422824 -0.05513096 -0.012136048
-0.23206908 -0.2698687 -0.16892315 -0.015248992 0.514842 -0.3804347 0.0120440805 0.2479952
-0.15460347 -0.12690045 -0.21498086 0.29938793 0.08329151 0.0077891154 -0.12677832 -0.11607512
0.057603315 -0.08475827 0.23227033 0.2746981 -0.22639835 -0.13796304 0.16121966 -0.2308832
-0.039953846 0.054006424 -0.084974006 -0.16613401 -0.095022514 -0.078073464 -0.006665682 -0.10977678
-0.10018808 0.12598215 0.0040671676 -0.19029528 0.0003397582 -0.05043503 0.0014732353 0.050894745
-0.080057524 -0.12943652 -0.25531092 -0.19043119 0.04260435 -0.073922954 -0.15281726 0.06716576
0.17178933 0.087413155 -0.09193272 0.15364523 -0.12252602 -0.10926106 0.12260025 0.0826727
-0.06792207 0.01628706 0.053660918 0.021645635 -0.20144701 0.008506686 -0.08156334 -0.11817824
0.0493231 -0.024913134 -0.23905511 0.12584025 0.022835774 -0.21461971 0.15478317 -0.088942185
0.10786505 -0.15500149 -0.2601957 -0.16492298 0.028650632 0.03316213 -0.15574297 -0.3192447
0.034023285 0.15410903 0.001087462 -0.09852007 0.0021295808 -0.15437856 0.34629938 -0.13548586
-0.1047632 -0.67499506 0.16590662 -0.08771367 0.08469912 -0.3135726 -0.03452712 -0.1127639
-0.13341281 0.14097407 0.04801092 0.1277959 0.2258287 -0.003293209 -0.05873678 0.20579135
0.114248246 0.037975702 0.02169062 -0.01733149 0.13581797 0.17805408 -0.09511078 0.12417038
0.04734228 0.09357906 -0.04248929 -0.111585595 0.06464394 -0.14339876 -0.13096161 0.10710456
-0.2585989 0.22250286 -0.032792937 0.01193275 -0.12447784 0.13758728 0.1673206 -0.1814771
00000000: a2db 363e 1cdc 453c 9af0 eabc 3dc6 2e3e
00000010: 2f44 c3bd 9d5c 4e3d 5375 a23b 17d9 eabc
00000020: c0e7 143e 995c 72bd 4004 04bc 624d 8dbd
00000030: 59fe 563e 5f7c 3cbe 3201 a03d 256f 253e
00000040: c56f 6c3e 9a86 6e3e 34a0 ad3d f291 313e
00000050: 135b 6c3e d417 27bd 1329 c73d 53b7 3bbe
00000060: 9cf5 973d 4958 d93d 0f6c 0d3d 4aa9 f43a
00000070: b505 4dbe d4ca 0e3d 403b 853e 5416 2dbc
00000080: 1d69 6dbe 45d0 a7be 2cfb 3a3c 2d9a 5a3e
00000090: 91b2 633d 1b42 01bf 4b50 f1bc 2402 983e
000000a0: 80c6 44be 4ba2 073d 61ec 093d 22e8 923e
000000b0: 1c48 b6be d0f0 6f3d 517d 88bd 8bbb 833c
000000c0: 06a6 8bbe ce93 8c3d 0714 963e dde1 783e
000000d0: d195 f83c 5b60 29bc 9e60 643d 48f6 93be
000000e0: c68c 9d3e 211e ba3d b73b f7bd a36a 433e
000000f0: bd2a 03bf 9407 803e 3e0d ca3e 2531 473d
00000100: 1710 8ebd 60b8 42bd 47f1 89bd 6242 8fbb
00000110: c267 1c3e ee45 c1bd 247e 1dbc f10f 7c3d
00000120: 6bcf f23d 0b2d 063e fbac 9cbe a80d 23bd
00000130: 1f55 653e 5825 9f3d c5d0 823d f356 193e
00000140: 34bf b43e e191 853e f533 78bd 8cf5 e83e
00000150: 6369 40bc aed9 55bd d539 5b3e 38fe db3d
00000160: aa58 45bd 3cd3 b13b aae7 49bd 7520 29be
00000170: 72e5 40be d18c 3cbd 3318 ac3d bae6 e5bc
00000180: a523 5b3e 3c65 15bd c543 d4bd a9e0 ab3e
00000190: 5be7 97be 8b15 1f3e 65ec 10be 0b23 403e
000001a0: d10d 1c3e c967 eabd c792 e93d f345 bfbd
000001b0: 5df5 8cbe 1c05 1337 c468 e0bd 5d78 053d
000001c0: bf16 1b3e 2cd6 bf3d fd69 8bbe cdbc 853d
000001d0: 59a8 87bc 01d5 a7bd 500d 983d c949 4bbe
000001e0: 2cdc 183d a6ae 2cbe cca2 2b3d 0941 dbbd
000001f0: 6630 61be 7ab2 113e 00d1 61bd 46d6 46bc
00000200: 84a3 6dbe 3b2c 8abe 31fa 2cbe e8d6 79bc
00000210: afcc 033f 56c8 c2be 8954 453c 74f2 7d3e
00000220: 5f50 1ebe 31f2 01be f123 5cbe 6049 993e
00000230: bd94 aa3d d63b ff3b 2dd2 01be cbb8 edbd
00000240: 74f1 6b3d be95 adbd 46d8 6d3e 3ba5 8c3e
00000250: f8d4 67be 2f46 0dbe c416 253e a56c 6cbe
00000260: a5a6 23bd d735 5d3d da06 aebd 091f 2abe
00000270: 2a9b c2bd fbe4 9fbd cb6b dabb a6d2 e0bd
00000280: 682f cdbd 7701 013e e045 853b c4dc 42be
00000290: 9321 b239 f694 4ebd 9319 c13a 0277 503d
000002a0: 33f5 a3bd 028b 04be 1db8 82be 6500 43be
000002b0: e681 2e3d eb64 97bd 217c 1cbe 348e 893d
000002c0: 8be9 2f3e ab05 b33d 3947 bcbd 2d55 1d3e
000002d0: ecee fabd 43c4 dfbd d715 fb3d 4e50 a93d
000002e0: ba1a 8bbd 716c 853c 8dcb 5b3d 3052 b13c
000002f0: 2048 4ebe a15f 0b3c ae0a a7bd 6f07 f2bd
00000300: 0507 4a3d a116 ccbc ddca 74be 44dc 003e
00000310: 1712 bb3c 45c5 5bbe 7b7f 1e3e 5227 b6bd
00000320: 5ae8 dc3d b6b8 1ebe 5f38 85be 92e1 28be
00000330: bbb4 ea3c 03d5 073d 167b 1fbe 0b74 a3be
00000340: 005c 0b3d c2ce 1d3e 2b89 8e3a e4c4 c9bd
00000350: 7090 0b3b 6a15 1ebe 274e b13e cebc 0abe
00000360: 178e d6bd 7acc 2cbf 6de3 293e 3aa3 b3bd
00000370: bb76 ad3d 968c a0be 4f6c 0dbd c2f0 e6bd
00000380: 5e9d 08be 825b 103e 19a7 443d eedc 023e
00000390: a43f 673e e1d2 57bb fa95 70bd f8ba 523e
000003a0: fcfa e93d 698c 1b3d 87b0 b13c c5fa 8dbc
000003b0: de13 0b3e cf53 363e 71c9 c2bd 0a4d fe3d
000003c0: fbe9 413d 61a6 bf3d 4009 2ebd fd86 e4bd
000003d0: 0b64 843d 20d7 12be cd1a 06be a359 db3d
000003e0: 1367 84be cad7 633e e351 06bd 9581 433c
000003f0: 3dee febd aee3 0c3e 1756 2b3e 22d5 39be

bias_ih_l0 f4 [128]
0.25903958 0.26394373 0.09126397 0.09475153 0.10912216 0.1258913 -0.041006036 0.10332626
0.025520813 0.053075373 0.20381004 0.18079981 0.11916655 0.13392366 0.103698 0.2639179
0.061701585 0.22265299 0.07675828 0.19563623 0.05363066 0.12951736 0.26207784 0.061950438
0.11600587 0.3042465 0.09407403 0.044898804 0.091879606 0.10032763 0.1633991 0.06196449
0.09606587 0.07805346 0.16084649 0.16249637 0.1213322 0.09141638 0.088924386 0.13332418
0.2548568 0.22231355 0.002971072 0.14786932 0.0060316036 0.25932315 0.17872564 -0.11170182
0.24039479 -0.06518063 -0.07073804 0.15901688 0.21926618 0.03290318 0.034974482 0.21753898
0.20538495 -0.12750785 0.025147354 0.07423272 0.16894594 0.04353764 0.14976758 0.29662997
0.030146077 0.0066659893 0.10569419 0.01439729 0.1770618 0.101210624 -0.14594455 0.18110725
-0.02798122 0.053247422 -0.15010701 0.012898827 0.041270036 -0.11925177 0.053083193 0.1192477
0.015220443 0.119817935 -0.0025247335 0.13927342 0.15046744 -0.09654372 0.03289396 -0.0315362
-0.029429268 -0.027686968 0.15141717 -0.07960507 -0.116604686 0.011510128 0.07913577 -0.08377981
0.2640046 0.094225496 0.04951663 0.28084943 0.24562263 0.19143051 0.16828352 0.24802558
0.22239931 0.33180547 0.28212646 0.33186105 0.07659669 0.19108187 0.08101326 0.24402432
0.28085288 0.26946494 0.27615085 0.19416504 0.18533614 0.34175682 0.29492778 0.29080403
0.19123895 0.28061056 0.08886749 0.21972841 0.29346323 0.25048456 0.20048073 0.30717155
00000000: d6a0 843e a223 873e 9be8 ba3d 170d c23d
00000010: 707b df3d a6e9 003e f2f5 27bd b89c d33d
00000020: 0611 d13c 9065 593d 94b3 503e 9623 393e
00000030: 980d f43d 4923 093e 9e5f d43d 3f20 873e
00000040: cdba 7c3d 25ff 633e 7233 9d3d dd54 483e
00000050: d3ab 5b3d 33a0 043e 112f 863e bebf 7d3d
00000060: 7c94 ed3d 32c6 9b3e e3a9 c03d cfe7 373d
00000070: 602b bc3d 9378 cd3d 1852 273e 7ace 7d3d
00000080: 2fbe c43d 7eda 9f3d f1b4 243e 7365 263e
00000090: 047d f83d 8338 bb3d fd1d b63d 2286 083e
000000a0: 977c 823e 2aa6 633e 51b6 423b 0e6b 173e
000000b0: c2a4 c53b 01c6 843e db03 373e ecc3 e4bd
000000c0: 0d2a 763e 6c7d 85bd 1bdf 90bd 52d5 223e
000000d0: 5087 603e 7cc5 063d 6741 0f3d 8ac2 5e3e
000000e0: 6f50 523e 6b91 02be d301 ce3c 5307 983d
000000f0: 2a00 2d3e 8654 323d ac5c 193e e2df 973e
00000100: e8f4 f63c 5f6e da3b 3276 d83d 9ce2 6b3c
00000110: b04f 353e 8447 cf3d 7d72 15be 2e74 393e
00000120: df38 e5bc f819 5a3d a7b5 19be 9a55 533c
00000130: c50a 293d 463a f4bd c36d 593d 2338 f43d
00000140: 2a5f 793c 1b63 f53d 0076 25bb b19d 0e3e
00000150: 2314 1a3e b7b8 c5bd d1bb 063d 1a2c 01bd
00000160: a615 f1bc c8cf e2bc 1a0d 1b3e fc07 a3bd
00000170: 70ce eebd fa94 3c3c ef11 a23d c094 abbd
00000180: 9c2b 873e 4cf9 c03d f3d1 4a3d 7fcb 8f3e
00000190: 8084 7b3e 5c06 443e 8452 2c3e 6bfa 7d3e
000001a0: a5bc 633e 68e2 a93e e172 903e b1e9 a93e
000001b0: bade 9c3d f7aa 433e 48ea a53d 83e1 793e
000001c0: f3cb 8f3e 4ff7 893e a563 8d3e 33d3 463e
000001d0: c2c8 3d3e c0fa ae3e c600 973e 44e4 943e
000001e0: 25d4 433e 30ac 8f3e 2900 b63d 7c00 613e
000001f0: d040 963e 833f 803e d24a 4d3e 9745 9d3e

bias_hh_l0 f4 [128]
0.25889033 0.26391682 0.09137958 0.09517837 0.11255939 0.12589133 -0.040985927 0.1030294
0.025500624 0.05302051 0.2038151 0.18079993 0.11915529 0.13392365 0.10365031 0.26354718
0.061503753 0.22265354 0.076873936 0.19563623 0.053623248 0.1295292 0.26207784 0.06190938
0.11573601 0.3042465 0.09403527 0.044898864 0.09187958 0.10032253 0.16424598 0.06184128
0.09618075 0.07814265 0.16006185 0.16240898 0.12122087 0.09142719 0.08936579 0.13320985
0.2546721 0.22229011 0.0029650244 0.14787436 0.0055850297 0.25933164 0.17936048 -0.11153674
0.24046896 -0.065175354 -0.06839219 0.15901257 0.21926656 0.03263117 0.03497448 0.21758783
0.20539145 -0.1275039 0.025143612 0.07421512 0.16905062 0.04341608 0.14986871 0.29677495
0.065499656 0.057129227 0.024699178 0.078577414 0.18289147 0.007690917 -0.05699089 0.18887576
-0.03792146 -0.008651257 -0.15138678 0.04940309 -0.012168767 -0.047463756 -0.03261933 0.06365135
0.0043643196 0.18101674 0.0048882635 0.14806361 0.07683783 -0.054322373 0.025102094 -0.0042001535
-0.019638402 -0.061909247 0.12115991 -0.06833013 -0.14765297 0.018083718 0.03800602 -0.13716939
0.26399443 0.09429059 0.04944401 0.28083178 0.24561484 0.19143064 0.16817069 0.24802026
0.2224115 0.33180547 0.28212637 0.33186105 0.07654895 0.19108205 0.080982655 0.24403222
0.2808521 0.26946494 0.2760944 0.19431065 0.18533613 0.3417569 0.29492778 0.29080403
0.19123895 0.28061122 0.088869676 0.2197406 0.29357994 0.25047836 0.20047991 0.30717155
00000000: 468d 843e 1b20 873e 3825 bb3d e1ec c23d
00000010: 8a85 e63d a8e9 003e dce0 27bd 1401 d33d
00000020: afe6 d03c 092c 593d e8b4 503e 9e23 393e
00000030: b007 f43d 4823 093e 9d46 d43d a8ef 863e
00000040: 5ceb 7b3d 4aff 633e 1570 9d3d dd54 483e
00000050: 0da4 5b3d 4da3 043e 112f 863e b194 7d3d
00000060: 0007 ed3d 32c6 9b3e 9095 c03d dfe7 373d
00000070: 5c2b bc3d e675 cd3d 1930 283e 484d 7d3d
00000080: 6afa c43d 4109 a03d 41e7 233e 8a4e 263e
00000090: a642 f83d 2e3e bb3d 6905 b73d 2a68 083e
000000a0: 6264 823e 05a0 633e db50 423b 606c 173e
000000b0: a002 b73b 1ec7 843e 46aa 373e 606d e4bd
000000c0: 7f3d 763e a87a 85bd 3411 8cbd 31d4 223e
000000d0: 6a87 603e 43a8 053d 6641 0f3d 58cf 5e3e
000000e0: 2352 523e 6290 02be faf9 cd3c 19fe 973d
000000f0: 9b1b 2d3e 0fd5 313d 2f77 193e e3f2 973e
00000100: af24 863d 5600 6a3d ee55 ca3c 32ed a03d
00000110: e747 3b3e 1604 fc3b 486f 69bd a668 413e
00000120: 8853 1bbd 00be 0dbc 2305 1bbe e55a 4a3d
00000130: 825f 47bc 5b69 42bd d99b 05bd a45b 823d
00000140: 9102 8f3b 745c 393e ba2d a03b fd9d 173e
00000150: 275d 9d3d 2381 5ebd e8a2 cd3c 71a1 89bb
00000160: b7e0 a0bc 8d94 7dbd b022 f83d abf0 8bbd
00000170: 5732 17be 4e24 943c 33ac 1b3d 2276 0cbe
00000180: 472a 873e 6d1b c13d cd85 4a3d 2fc9 8f3e
00000190: 7582 7b3e 6506 443e f034 2c3e 06f9 7d3e
000001a0: d7bf 633e 68e2 a93e de72 903e b1e9 a93e
000001b0: b2c5 9c3d 03ab 433e 3cda a53d 95e3 793e
000001c0: d9cb 8f3e 4ff7 893e 3f5c 8d3e 5ff9 463e
000001d0: c1c8 3d3e c3fa ae3e c600 973e 44e4 943e
000001e0: 25d4 433e 46ac 8f3e 4e01 b63d ae03 613e
000001f0: 1c50 963e b33e 803e 9b4a 4d3e 9745 9d3e

weight_ih_l1 f4 [128, 32]
0.0043093977 -0.028234314 -0.06962715 0.004115678 -0.009946676 -0.06767688 -0.0288358 0.095494896
-0.013106085 -0.0060744863 -0.11963389 -0.10195515 0.030979076 -0.1099159 0.0021878772 0.058962874
0.08514819 0.09173871 -0.038495403 0.083672784 -0.062290862 -0.10885589 0.1410538 0.05426139
0.023016194 -0.013697718 0.02394754 -0.01887611 -0.14032826 0.05742454 0.11720851 -0.06071509
-0.0115317125 -0.035412226 -0.070982836 0.022858007 -0.003998813 -0.06520802 -0.019240877 0.09729994
-0.00057908345 -0.0032968605 -0.12510267 -0.117402434 0.031404004 -0.12075023 0.00054979743 0.055109147
0.09653016 0.1011245 -0.038400397 0.083824195 -0.048252136 -0.10281815 0.15338796 0.052683722
0.022481574 -0.028554002 0.016501362 -0.018399473 -0.12850253 0.052905872 0.11667397 -0.062248543
-0.008345495 -0.036160912 -0.06386811 0.03256875 -0.000463632 -0.0609627 -0.026550038 0.081299186
0.009515552 -0.0010650677 -0.121905826 -0.12138264 0.02720365 -0.12066094 0.00440182 0.0616383
0.100549884 0.10966409 -0.035168197 0.08525267 -0.07351027 -0.10399585 0.15008001 0.053316507
0.024953626 -0.019510897 0.03392067 -0.019216765 -0.122364536 0.049560085 0.09363642 -0.06837492
-0.012519037 -0.03702181 -0.07368718 0.016766304 0.0011007404 -0.07220791 -0.031353515 0.0885243
-0.019679425 -0.0070462464 -0.1238491 -0.117103785 0.020659585 -0.12744457 0.00274412 0.0605173
0.09677588 0.10963047 -0.044637036 0.08375459 -0.06381999 -0.104829155 0.14685488 0.06588041
0.0133955935 -0.018355554 0.033552114 -0.020632206 -0.1281731 0.04309103 0.104488105 -0.068799645
-1.6299944e-05 -0.03233834 -0.06351821 0.02068274 0.004670021 -0.07179439 -0.021329608 0.08471374
-0.01189935 -0.008487544 -0.1144433 -0.11686503 0.030479928 -0.1215025 0.00041793034 0.056241155
0.08464936 0.112115346 -0.04756658 0.08082359 -0.055110294 -0.10798456 0.15259829 0.050829336
0.011168639 -0.013493996 0.034974374 -0.013840512 -0.1246091 0.043049045 0.11688418 -0.05047992
-0.010168368 -0.031298436 -0.060658872 0.02441164 -0.009906581 -0.07429988 -0.02561703 0.078247346
-0.0061064 -0.0012548274 -0.13005796 -0.1161912 0.024899656 -0.11220597 -0.008100473 0.06926427
0.09114383 0.10571863 -0.023403073 0.08053903 -0.060269803 -0.1016469 0.15615714 0.053596646
0.019341778 -0.026278557 0.032036845 -0.034970485 -0.12847412 0.04739473 0.1083346 -0.059151556
-0.003834172 -0.021816345 -0.067421354 0.016881596 -0.013812825 -0.06864658 -0.0357849 0.08394587
-0.018062266 -0.017226737 -0.1219526 -0.10851389 0.029830374 -0.12599517 -0.002389165 0.07070896
0.09881485 0.11200218 -0.032299545 0.09953022 -0.06457102 -0.10864851 0.15504715 0.05716339
0.029646624 -0.0030532328 0.04575714 -0.014222446 -0.1328818 0.04698052 0.099635504 -0.060907893
-0.0062042996 -0.046090826 -0.058221087 0.03208056 -0.004937469 -0.084625475 -0.02297352 0.09717949
-0.004754903 0.013082221 -0.123018526 -0.10465621 0.032060042 -0.119509876 -0.0068700598 0.07677902
0.09852944 0.10191443 -0.027082426 0.090462446 -0.07011943 -0.10352298 0.15783615 0.04614168
0.03789754 -0.030196337 0.047200926 -0.025680121 -0.13608372 0.03727107 0.11926565 -0.047640353
00000000: d935 8d3b a64b e7bc ae98 8ebd cfdc 863b
00000010: 62f7 22bc 2d9a 8abd 0e39 ecbc d492 c33d
00000020: e8ba 56bc 7c0c c7bb 9d02 f5bd ddcd d0bd
00000030: d5c7 fd3c 961b e1bd 7d62 0f3b 0e83 713d
00000040: 2d62 ae3d 81e1 bb3d 5bad 1dbd a35c ab3d
00000050: b424 7fbd d6ef debd 6870 103e 3141 5e3d
00000060: 758c bc3c 656c 60bc a22d c43c 12a2 9abc
00000070: 36b2 0fbe ff35 6b3d 040b f03d 63b0 78bd
00000080: 82ef 3cbc 690c 11bd 735f 91bd b740 bb3c
00000090: 7a08 83bb c88b 85bd 0b9f 9dbc 3145 c73d
000000a0: a2cd 17ba 2410 58bb ea1a 00be b070 f0bd
000000b0: 7ca1 003d e64b f7bd 4820 103a 21ba 613d
000000c0: 9bb1 c53d 5d1a cf3d bc49 1dbd 05ac ab3d
000000d0: 08a4 45bd 5292 d2bd bc11 1d3e e3ca 573d
000000e0: 472b b83c 15ea e9bc dd2d 873c 7eba 96bc
000000f0: 2b96 03be d4b3 583d c3f2 ee3d 54f8 7ebd
00000100: 8bbb 08bc 771d 14bd 49cd 82bd cf66 053d
00000110: a213 f3b9 06b4 79bd 777f d9bc 3080 a63d
00000120: 1ee7 1b3c be99 8bba c3a9 f9bd 7697 f8bd
00000130: 30da de3c 151d f7bd 243d 903b 7178 7c3d
00000140: 19ed cd3d 9197 e03d 870c 10bd f498 ae3d
00000150: 8d8c 96bd c7fb d4bd 93ae 193e 6962 5a3d
00000160: 8c6b cc3c 51d5 9fbc 67f0 0a3d 7a6c 9dbc
00000170: 429a fabd 84ff 4a3d 74c4 bf3d 2608 8cbd
00000180: a61c 4dbc 2ea4 17bd 4ee9 96bd 7d59 893c
00000190: b846 903a bee1 93bd 8b6c 00bd 3a4c b53d
000001a0: bf36 a1bc 33e4 e6bb 99a4 fdbd 1cd4 efbd
000001b0: 4a3e a93c d480 02be b2d6 333b fde0 773d
000001c0: 6f32 c63d f185 e03d 53d5 36bd 8787 ab3d
000001d0: 0eb4 82bd abb0 d6bd 2061 163e 4fec 863d
000001e0: 3179 5b3c 635e 96bc f16d 093d df04 a9bc
000001f0: cf3f 03be 3880 303d dcfd d53d d4e6 8cbd
00000200: ddbb 88b7 3575 04bd d615 82bd d96e a93c
00000210: fa06 993b f008 93bd 6ebb aebc 667e ad3d
00000220: 7ef5 42bc 570f 0bbc 4061 eabd ef56 efbd
00000230: 0bb1 f93c 4dd6 f8bd a91d db39 205d 663d
00000240: a55c ad3d bb9c e53d 2dd5 42bd d786 a53d
00000250: 55bb 61bd 0227 ddbd ba42 1c3e 6c32 503d
00000260: abfc 363c ec15 5dbc 4a41 0f3d 51c3 62bc
00000270: 0e33 ffbd 3254 303d f960 ef3d 08c4 4ebd
00000280: 3a99 26bc ca32 00bd 7075 78bd ebfa c73c
00000290: 364f 22bc 892a 98bd ceda d1bc 2540 a03d
000002a0: 3218 c8bb 0579 a4ba ea2d 05be a7f5 edbd
000002b0: 5dfa cb3c 3ecc e5bd d9b7 04bc 6dda 8d3d
000002c0: 9ea9 ba3d 0283 d83d cdb7 bfbc a6f1 a43d
000002d0: 78dd 76bd 402c d0bd a8e7 1f3e 2888 5b3d
000002e0: a672 9e3c 2146 d7bc 1139 033d 363d 0fbd
000002f0: b88e 03be fa20 423d 88de dd3d e748 72bd
00000300: bb46 7bbb 31b8 b2bc 3514 8abd 464b 8a3c
00000310: 304f 62bc 9496 8cbd 3093 12bd d0eb ab3d
00000320: 51f7 93bc 161f 8dbc 49c2 f9bd 883c debd
00000330: d45e f43c e104 01be 8a93 1cbb dccf 903d
00000340: 715f ca3d 6661 e53d 874c 04bd 80d6 cb3d
00000350: d03d 84bd 1c83 debd aec4 1e3e 2924 6a3d
00000360: 7add f23c bf18 48bb d76b 3b3d 4305 69bc
00000370: 2b12 08be a56e 403d b30d cc3d 8e7a 79bd
00000380: 704d cbbb bcc9 3cbd 3c79 6ebd e866 033d
00000390: 7eca a1bb 1f50 adbd f732 bcbc 0a06 c73d
000003a0: 04cf 9bbb d056 563c 23f1 fbbd ff55 d6bd
000003b0: 6451 033d 98c1 f4bd 3d1e e1bb 523e 9d3d
000003c0: cec9 c93d 83b8 d03d f7db ddbc 6044 b93d
000003d0: c79a 8fbd db03 d4bd cd9f 213e 0fff 3c3d
000003e0: 733a 1b3d 4f5e f7bc c255 413d 1e5f d2bc
000003f0: 8859 0bbe 8da9 183d 8d41 f43d 8822 43bd

weight_hh_l1 f4 [128, 32]
-0.0047438424 -0.004553022 0.0036849275 -0.0050608283 0.0045644133 0.0051274365 -0.003924129 -0.003622125
0.0044097095 0.0040991376 0.0035928392 -0.0043646717 0.0050386204 -0.0047279727 -0.0037813857 0.0043816688
0.0043271384 -0.0034855683 -0.0041228975 -0.0052175615 -0.003921354 -0.0044132 0.004143189 -0.0036486525
-0.0037906365 0.0043739583 0.004894248 -0.004257952 0.0045378483 0.003920005 -0.004017888 -0.004527412
-0.002539089 -0.003398822 0.0024829744 -0.0032691637 0.002716154 0.0033153596 -0.0043072603 -0.0021883983
0.0032276828 0.0035988307 0.0032593904 -0.0039440244 0.0036207442 -0.004325785 -0.0032614707 0.0035609368
0.003746423 -0.0032525584 -0.003537094 -0.004014966 -0.0031810687 -0.004091343 0.0024837092 -0.0037847569
-0.0029822614 0.003514187 0.003160088 -0.003319527 0.0027625575 0.004511128 -0.0032201589 -0.0041305446
0.0072606932 0.007213605 -0.008340651 0.0077829333 -0.008471091 -0.0074446215 0.0077749775 0.008327999
-0.008421409 -0.0076666353 -0.007206461 0.007047919 -0.006935695 0.0076309517 0.008652426 -0.007475343
-0.007943315 0.008382399 0.008315336 0.0067609185 0.007770714 0.008413395 -0.008327292 0.008237807
0.0076675788 -0.007724706 -0.008319875 0.007083456 -0.007626931 -0.006841391 0.007949117 0.0072242077
-0.0004724323 -0.0018268493 0.0001009031 -0.00044258882 -2.7745913e-05 0.0018059689 -0.0015235735 4.3548675e-06
0.00029853554 0.0010048869 0.00096396473 -0.0011840672 0.0012009583 -0.0011801013 -0.00089174724 0.0014085835
0.0010112184 -0.00048678843 -0.0007644515 -0.0018848969 -0.0005818752 -0.0008452342 0.0005176669 -0.00042065268
-0.00091437035 0.00062354206 0.001059077 -0.0006608801 1.8445042e-05 0.00072155095 -0.00049202173 -0.002542191
0.0014603196 0.0007661301 -0.0015873776 0.00019001531 -0.0012997699 -0.0007497407 -3.4744924e-05 0.0016520917
-0.0013569765 -0.0005293424 -0.00090491615 5.211418e-05 -0.0011871615 0.00026811223 0.001499415 8.593064e-05
-0.0008707976 0.0008837702 0.0011804107 0.00024611826 0.0013071335 0.0007044673 -0.00164896 0.0009899422
0.00069293374 -0.001890975 -0.00039228747 0.000622389 -0.0011097749 -0.00017498943 0.0013710837 0.00051382545
-0.0035138724 -0.0035650034 0.0023747091 -0.0025993567 0.0021838017 0.0036870085 -0.004411612 -0.0029999225
0.0038050641 0.0035300965 0.003993434 -0.0041137077 0.0039331983 -0.0034050543 -0.0022506972 0.0033409565
0.0036925962 -0.0031235814 -0.0026057663 -0.004001865 -0.003506732 -0.0038462845 0.002551172 -0.0027007933
-0.003186826 0.0037524116 0.0028734326 -0.0031941684 0.0023039803 0.0042675333 -0.0033620975 -0.0037646927
-0.0008487595 -0.0002523803 -0.00036906017 -0.0005189529 -0.00041833307 -0.00011498125 -0.000240255 0.0005088751
0.00076681393 4.742492e-05 0.00095518766 -0.0008500789 0.00020932252 -0.0006856139 -0.00010898138 0.00011494128
-0.00051289913 0.00070029433 0.0007402269 -0.00074733235 -0.0007103856 4.3996915e-06 4.036298e-05 0.000355679
-0.0002642597 0.0007040898 -0.00046685312 0.00016509207 -0.00027432077 0.00026523936 -0.0002615654 -0.00031123674
0.0033868887 0.0026597558 -0.003739692 0.0033982494 -0.0038833646 -0.0031180342 0.0025628123 0.0032197165
-0.0036403846 -0.002882669 -0.0034256356 0.003267705 -0.0033526754 0.003047912 0.0038887095 -0.0033373195
-0.003449472 0.0038804354 0.0030857015 0.00260581 0.0028238893 0.00392616 -0.0039504203 0.003706216
0.003346634 -0.0035711604 -0.0034189273 0.0029809955 -0.0027752144 -0.0032917073 0.0030638601 0.0033843624
00000000: 3c72 9bbb 8431 95bb d37e 713b 4ed5 a5bb
00000010: 1391 953b 0e04 a83b fb95 80bb 2c61 6dbb
00000020: 537f 903b 0f52 863b d775 6b3b 8505 8fbb
00000030: 031b a53b 1ced 9abb 20d1 77bb 1a94 8f3b
00000040: abca 8d3b 226e 64bb 5f19 87bb 14f8 aabb
00000050: b47e 80bb 9b9c 90bb 97c3 873b 3b1e 6fbb
00000060: 546c 78bb 6c53 8f3b ee5f a03b 4a86 8bbb
00000070: 3bb2 943b 6373 803b 7da8 83bb af5a 94bb
00000080: d866 26bb c5be 5ebb 66b9 223b 773f 56bb
00000090: 8101 323b 8146 593b eb23 8dbb 3b6b 0fbb
000000a0: 8887 533b 5cda 6b3b 7f9b 553b e03c 81bb
000000b0: 024a 6d3b 51bf 8dbb 66be 55bb 9b5e 693b
000000c0: 8c86 753b e028 55bb 97ce 67bb fa8f 83bb
000000d0: 7a79 50bb ac10 86bb bac5 223b af09 78bb
000000e0: 0b72 43bb 464e 663b 7b19 4f3b 6c8c 59bb
000000f0: 060c 353b 16d2 933b 4d09 53bb 8559 87bb
00000100: 1ceb ed3b 1b60 ec3b 3aa7 08bc fa07 ff3b
00000110: 55ca 0abc 03f2 f3bb 3dc5 fe3b 2972 083c
00000120: f3f9 09bc 6638 fbbb 2d24 ecbb 3bf2 e63b
00000130: d444 e3bb 100d fa3b e8c2 0d3c b9f3 f4bb
00000140: ae24 02bc 5456 093c 0c3d 083c b28a dd3b
00000150: 79a1 fe3b 56d8 093c 326f 08bc def7 063c
00000160: 5040 fb3b 881f fdbb 1650 08bc 561c e83b
00000170: 56eb f9bb bf2d e0bb 033d 023c 0cb9 ec3b
00000180: cab0 f7b9 e472 efba f09b d338 440b e8b9
00000190: e5bf e8b7 43b6 ec3a a5b2 c7ba 0720 9236
000001a0: c384 9c39 69b6 833a 94b2 7c3a b432 9bba
000001b0: 7969 9d3a a1ad 9aba 25c4 69ba 38a0 b83a
000001c0: dc8a 843a a337 ffb9 7965 48ba a50e f7ba
000001d0: fc88 18ba b592 5dba 0ab4 073a 0c8b dcb9
000001e0: 5bb2 6fba 3375 233a bad0 8a3a ea3e 2dba
000001f0: 6dba 9a37 7726 3d3a 05fb 00ba e39a 26bb
00000200: 3268 bf3a 1fd6 483a 8e0f d0ba d93e 4739
00000210: 0a5d aaba 3f8a 44ba 14bb 11b8 008b d83a
00000220: 93dc b1ba 91c3 0aba e537 6dba 2d95 5a38
00000230: 889a 9bba 6a91 8c39 0588 c43a a935 b438
00000240: 3d46 64ba d0ac 673a 03b8 9a3a 6f09 8139
00000250: 1f54 ab3a 00ac 383a eb21 d8ba f3c0 813a
00000260: ffa5 353a 98da f7ba efab cdb9 d227 233a
00000270: de75 91ba 5e7d 37b9 efb5 b33a 3eb2 063a
00000280: ff48 66bb d5a2 69bb 02a1 1b3b f859 2abb
00000290: 1d1e 0f3b bda1 713b 498f 90bb 599a 44bb
000002a0: 625e 793b 3159 673b 5adb 823b 48cc 86bb
000002b0: 0fe2 803b 5527 5fbb 6f80 13bb f3f3 5a3b
000002c0: 7cff 713b 00b5 4cbb 81c5 2abb 1422 83bb
000002d0: 33d1 65bb f211 7cbb 9031 273b cbff 30bb
000002e0: 11da 50bb 05eb 753b 3350 3c3b 4155 51bb
000002f0: 60fe 163b aad6 8b3b a356 5cbb 10b9 76bb
00000300: 497f 5eba e951 84b9 6b7e c1b9 570a 08ba
00000310: b753 dbb9 1722 f1b8 f6ec 7bb9 0866 053a
00000320: 0304 493a 1fea 4638 8f65 7a3a d4d7 5eba
00000330: 967d 5b39 c5ba 33ba ef8c e4b8 a10c f138
00000340: 1474 06ba f593 373a c90b 423a a0e8 43ba
00000350: 2c39 3aba 10a1 9336 6b4b 2938 6d7a ba39
00000360: 568c 8ab9 ab92 383a f7c3 f4b9 911c 2d39
00000370: b6d2 8fb9 d30f 8b39 b722 89b9 7d2d a3b9
00000380: 90f6 5d3b 4c4f 2e3b 9f15 75bb 2ab5 5e3b
00000390: 0c80 7ebb ef57 4cbb dbf4 273b e101 533b
000003a0: 8593 6ebb 29eb 3cbb a180 60bb fe26 563b
000003b0: 8fb8 5bbb 7abf 473b b8d9 7e3b eeb6 5abb
000003c0: 8910 62bb e74e 7e3b 7b39 4a3b 3dc6 2a3b
000003d0: 0011 393b 04a7 803b 8772 81bb fde3 723b
000003e0: 3453 5b3b 210a 6abb 1510 60bb ce5c 433b
000003f0: 5fe0 35bb afb9 57bb 0bcb 483b 2ecc 5d3b

bias_ih_l1 f4 [128]
0.15018654 0.14413887 0.14702325 0.14723364 0.1488905 0.15360847 0.15877661 0.14322852
0.15322351 0.14682482 0.14996538 0.14690106 0.15446497 0.15036066 0.15163164 0.1563674
0.14750344 0.15149683 0.14518921 0.15242887 0.15104453 0.14824821 0.15710863 0.15381762
0.15126656 0.14933464 0.14327098 0.14966737 0.14659777 0.14876373 0.15054367 0.15069105
-0.11835546 -0.11906375 -0.11348876 -0.11867335 -0.114992015 -0.11388728 -0.11848893 -0.12422337
-0.11846566 -0.1227755 -0.12243154 -0.11871515 -0.11944295 -0.11839508 -0.1203414 -0.117991716
-0.11970587 -0.11726571 -0.11636468 -0.11400586 -0.117608294 -0.119331464 -0.11933963 -0.119910024
-0.119095236 -0.11888091 -0.11826896 -0.11963041 -0.11669179 -0.12227078 -0.11838529 -0.12034156
0.011331243 0.0058699613 0.022604719 -0.014774054 0.0075569986 0.0021824706 -0.032628532 0.014929799
0.020898564 0.0015617585 -0.024909638 -0.009516937 0.0017399407 -0.00721294 -0.011470326 0.00048514435
-0.0012131279 0.014053112 0.004819348 -0.00485791 -0.020823438 0.026107395 -0.0069824243 0.005353357
-0.030240934 -0.022082886 -0.028017718 -0.012757305 -0.00976558 -0.018516503 -0.008521038 -0.023304364
0.15359636 0.14951016 0.15257065 0.15347369 0.15315613 0.15665253 0.1637608 0.14784716
0.15973334 0.15097897 0.15463114 0.15248579 0.15894446 0.15474547 0.15545109 0.16022079
0.15135166 0.15306665 0.14896165 0.15558612 0.15616414 0.15197432 0.16083343 0.15808628
0.15730956 0.15250424 0.1459541 0.15465295 0.1494298 0.15365303 0.15581907 0.15657239
00000000: 80ca 193e 2499 133e 438d 163e 6ac4 163e
00000010: c076 183e 8a4b 1d3e 5696 223e 7faa 123e
00000020: a0e6 1c3e 3f59 163e 8690 193e 3b6d 163e
00000030: 112c 1e3e 25f8 193e 5345 1b3e c71e 203e
00000040: 240b 173e fc21 1b3e 7bac 143e 5016 1c3e
00000050: 6bab 1a3e 61ce 173e 16e1 203e 5e82 1d3e
00000060: 9fe5 1a3e 2eeb 183e a1b5 123e 6742 193e
00000070: ba1d 163e 8555 183e 1f28 1a3e c14e 1a3e
00000080: 5964 f2bd b2d7 f3bd cc6c e8bd 030b f3bd
00000090: ef80 ebbd bc3d e9bd 53aa f2bd d268 febd
000000a0: 209e f2bd b971 fbbd 63bd fabd ee20 f3bd
000000b0: 819e f4bd 1f79 f2bd 8d75 f6bd a4a5 f1bd
000000c0: 5a28 f5bd 0129 f0bd 9b50 eebd e87b e9bd
000000d0: 9edc f0bd 0e64 f4bd 5668 f4bd 6393 f5bd
000000e0: 34e8 f3bd d677 f3bd ff36 f2bd ca00 f5bd
000000f0: 1bfc eebd 1a69 fabd fd73 f2bd a375 f6bd
00000100: aea6 393c ce58 c03b 882d b93c e00e 72bc
00000110: b3a0 f73b c807 0f3b 7fa5 05bd 1e9c 743c
00000120: 7733 ab3c ebb3 cc3a 4c0f ccbc edec 1bbc
00000130: b90e e43a 875a ecbb 09ee 3bbc f95a fe39
00000140: d101 9fba 063f 663c 9feb 9d3b 1a2f 9fbb
00000150: ea95 aabc 2ddf d53c d2cc e4bb 376b af3b
00000160: d6bb f7bc 2be7 b4bc 6a85 e5bc 0404 51bc
00000170: d0ff 1fbc ecaf 97bc d39b 0bbc cbe8 bebc
00000180: 5d48 1d3e 3119 193e 7b3b 1c3e 3528 1d3e
00000190: f6d4 1c3e 8569 203e e9b0 273e 3f65 173e
000001a0: 2391 233e 3b9a 1a3e a057 1e3e 3c25 1c3e
000001b0: 56c2 223e 9975 1e3e 922e 1f3e eb10 243e
000001c0: eefb 1a3e 81bd 1c3e 6789 183e f851 1f3e
000001d0: 7ee9 1f3e 289f 1b3e 85b1 243e 5fe1 213e
000001e0: c215 213e 122a 1c3e fe74 153e 585d 1e3e
000001f0: 2004 193e 3857 1d3e 098f 1f3e 8354 203e

bias_hh_l1 f4 [128]
0.15018654 0.14413887 0.14702325 0.14723364 0.1488905 0.15360847 0.15877661 0.14322852
0.15322351 0.14682482 0.14996538 0.14690106 0.15446497 0.15036066 0.15163164 0.1563674
0.14750344 0.15149683 0.14518921 0.15242887 0.15104453 0.14824821 0.15710863 0.15381762
0.15126656 0.14933464 0.14327098 0.14966737 0.14659777 0.14876373 0.15054367 0.15069105
-0.11835546 -0.11906375 -0.11348876 -0.11867335 -0.114992015 -0.11388728 -0.11848893 -0.12422337
-0.11846566 -0.1227755 -0.12243154 -0.11871515 -0.11944295 -0.11839508 -0.1203414 -0.117991716
-0.11970587 -0.11726571 -0.11636468 -0.11400586 -0.117608294 -0.119331464 -0.11933963 -0.119910024
-0.119095236 -0.11888091 -0.11826896 -0.11963041 -0.11669179 -0.12227078 -0.11838529 -0.12034156
-0.0029741416 0.0067617274 -0.035219617 0.022040028 -0.015903372 -0.009928621 0.044349767 -0.0072710183
-0.030976158 -0.0131030865 0.015629787 0.012116479 -0.0151932975 0.019971702 0.01960886 -0.010337546
-0.011080836 -0.005301736 0.0069778073 0.010197626 0.027639497 -0.017379861 -0.007516066 0.004020374
0.035417695 0.01581417 0.020976398 0.021588659 0.0061803106 0.009068216 0.015266008 0.033940133
0.15359636 0.14951016 0.15257065 0.15347369 0.15315613 0.15665253 0.1637608 0.14784716
0.15973334 0.15097897 0.15463114 0.15248579 0.15894446 0.15474547 0.15545109 0.16022079
0.15135166 0.15306665 0.14896165 0.15558612 0.15616414 0.15197432 0.16083343 0.15808628
0.15730956 0.15250424 0.1459541 0.15465295 0.1494298 0.15365303 0.15581907 0.15657239
00000000: 80ca 193e 2499 133e 438d 163e 6ac4 163e
00000010: c076 183e 8a4b 1d3e 5696 223e 7faa 123e
00000020: a0e6 1c3e 3f59 163e 8690 193e 3b6d 163e
00000030: 112c 1e3e 25f8 193e 5345 1b3e c71e 203e
00000040: 240b 173e fc21 1b3e 7bac 143e 5016 1c3e
00000050: 6bab 1a3e 61ce 173e 16e1 203e 5e82 1d3e
00000060: 9fe5 1a3e 2eeb 183e a1b5 123e 6742 193e
00000070: ba1d 163e 8555 183e 1f28 1a3e c14e 1a3e
00000080: 5964 f2bd b2d7 f3bd cc6c e8bd 030b f3bd
00000090: ef80 ebbd bc3d e9bd 53aa f2bd d268 febd
000000a0: 209e f2bd b971 fbbd 63bd fabd ee20 f3bd
000000b0: 819e f4bd 1f79 f2bd 8d75 f6bd a4a5 f1bd
000000c0: 5a28 f5bd 0129 f0bd 9b50 eebd e87b e9bd
000000d0: 9edc f0bd 0e64 f4bd 5668 f4bd 6393 f5bd
000000e0: 34e8 f3bd d677 f3bd ff36 f2bd ca00 f5bd
000000f0: 1bfc eebd 1a69 fabd fd73 f2bd a375 f6bd
00000100: d1e9 42bb 7b91 dd3b 7242 10bd 4a8d b43c
00000110: ca47 82bc a8ab 22bc 1aa8 353d b941 eebb
00000120: b6c1 fdbc 54ae 56bc 0a0a 803c 3284 463c
00000130: 4fed 78bc b29b a33c c3a2 a03c cf5e 29bc
00000140: 658c 35bc 2fba adbb 17a6 e43b f213 273c
00000150: 3a6c e23c 3660 8ebc 5549 f6bb 57bd 833b
00000160: 2512 113d b88c 813c b2d6 ab3c b3da b03c
00000170: 3484 ca3b db92 143c 471e 7a3c cf04 0b3d
00000180: 5d48 1d3e 3119 193e 7b3b 1c3e 3528 1d3e
00000190: f6d4 1c3e 8569 203e e9b0 273e 3f65 173e
000001a0: 2391 233e 3b9a 1a3e a057 1e3e 3c25 1c3e
000001b0: 56c2 223e 9975 1e3e 922e 1f3e eb10 243e
000001c0: eefb 1a3e 81bd 1c3e 6789 183e f851 1f3e
000001d0: 7ee9 1f3e 289f 1b3e 85b1 243e 5fe1 213e
000001e0: c215 213e 122a 1c3e fe74 153e 585d 1e3e
000001f0: 2004 193e 3857 1d3e 098f 1f3e 8354 203e
